…
 block1b_drop (Dropout)         (None, 192, 192, 24  0           ['block1b_project_activation[0][0
                                )                                ]']                              
                                                                                                  
 block1b_add (Add)              (None, 192, 192, 24  0           ['block1b_drop[0][0]',           
                                )                                 'block1a_add[0][0]']            
                                                                                                  
 block2a_expand_conv (Conv2D)   (None, 96, 96, 96)   20736       ['block1b_add[0][0]']            
                                                                                                  
 block2a_expand_bn (BatchNormal  (None, 96, 96, 96)  384         ['block2a_expand_conv[0][0]']    
 ization)                                                                                         
                                                                                                  
 block2a_expand_activation (Act  (None, 96, 96, 96)  0           ['block2a_expand_bn[0][0]']      
 ivation)                                                                                         
                                                                                                  
 block2a_project_conv (Conv2D)  (None, 96, 96, 48)   4608        ['block2a_expand_activation[0][0]
                                                                 ']                               
                                                                                                  
 block2a_project_bn (BatchNorma  (None, 96, 96, 48)  192         ['block2a_project_conv[0][0]']   
 lization)                                                                                        
                                                                                                  
 block2b_expand_conv (Conv2D)   (None, 96, 96, 192)  82944       ['block2a_project_bn[0][0]']     
                                                                                                  
 block2b_expand_bn (BatchNormal  (None, 96, 96, 192)  768        ['block2b_expand_conv[0][0]']    
 ization)                                                                                         
                                                                                                  
 block2b_expand_activation (Act  (None, 96, 96, 192)  0          ['block2b_expand_bn[0][0]']      
 ivation)                                                                                         
                                                                                                  
 block2b_project_conv (Conv2D)  (None, 96, 96, 48)   9216        ['block2b_expand_activation[0][0]
                                                                 ']                               
                                                                                                  
 block2b_project_bn (BatchNorma  (None, 96, 96, 48)  192         ['block2b_project_conv[0][0]']   
 lization)                                                                                        
                                                                                                  
 block2b_drop (Dropout)         (None, 96, 96, 48)   0           ['block2b_project_bn[0][0]']     
                                                                                                  
 block2b_add (Add)              (None, 96, 96, 48)   0           ['block2b_drop[0][0]',           
                                                                  'block2a_project_bn[0][0]']     
                                                                                                  
 block2c_expand_conv (Conv2D)   (None, 96, 96, 192)  82944       ['block2b_add[0][0]']            
                                                                                                  
 block2c_expand_bn (BatchNormal  (None, 96, 96, 192)  768        ['block2c_expand_conv[0][0]']    
 ization)                                                                                         
                                                                                                  
 block2c_expand_activation (Act  (None, 96, 96, 192)  0          ['block2c_expand_bn[0][0]']      
 ivation)                                                                                         
                                                                                                  
 block2c_project_conv (Conv2D)  (None, 96, 96, 48)   9216        ['block2c_expand_activation[0][0]
                                                                 ']                               
                                                                                                  
 block2c_project_bn (BatchNorma  (None, 96, 96, 48)  192         ['block2c_project_conv[0][0]']   
 lization)                                                                                        
                                                                                                  
 block2c_drop (Dropout)         (None, 96, 96, 48)   0           ['block2c_project_bn[0][0]']     
                                                                                                  
 block2c_add (Add)              (None, 96, 96, 48)   0           ['block2c_drop[0][0]',           
                                                                  'block2b_add[0][0]']            
                                                                                                  
 block2d_expand_conv (Conv2D)   (None, 96, 96, 192)  82944       ['block2c_add[0][0]']            
                                                                                                  
 block2d_expand_bn (BatchNormal  (None, 96, 96, 192)  768        ['block2d_expand_conv[0][0]']    
 ization)                                                                                         
                                                                                                  
 block2d_expand_activation (Act  (None, 96, 96, 192)  0          ['block2d_expand_bn[0][0]']      
 ivation)                                                                                         
                                                                                                  
 block2d_project_conv (Conv2D)  (None, 96, 96, 48)   9216        ['block2d_expand_activation[0][0]
                                                                 ']                               
                                                                                                  
 block2d_project_bn (BatchNorma  (None, 96, 96, 48)  192         ['block2d_project_conv[0][0]']   
 lization)                                                                                        
                                                                                                  
 block2d_drop (Dropout)         (None, 96, 96, 48)   0           ['block2d_project_bn[0][0]']     
                                                                                                  
 block2d_add (Add)              (None, 96, 96, 48)   0           ['block2d_drop[0][0]',           
                                                                  'block2c_add[0][0]']            
                                                                                                  
 block3a_expand_conv (Conv2D)   (None, 48, 48, 192)  82944       ['block2d_add[0][0]']            
                                                                                                  
 block3a_expand_bn (BatchNormal  (None, 48, 48, 192)  768        ['block3a_expand_conv[0][0]']    
 ization)                                                                                         
                                                                                                  
 block3a_expand_activation (Act  (None, 48, 48, 192)  0          ['block3a_expand_bn[0][0]']      
 ivation)                                                                                         
                                                                                                  
 block3a_project_conv (Conv2D)  (None, 48, 48, 64)   12288       ['block3a_expand_activation[0][0]
                                                                 ']                               
                                                                                                  
 block3a_project_bn (BatchNorma  (None, 48, 48, 64)  256         ['block3a_project_conv[0][0]']   
 lization)                                                                                        
                                                                                                  
 block3b_expand_conv (Conv2D)   (None, 48, 48, 256)  147456      ['block3a_project_bn[0][0]']     
                                                                                                  
 block3b_expand_bn (BatchNormal  (None, 48, 48, 256)  1024       ['block3b_expand_conv[0][0]']    
 ization)                                                                                         
                                                                                                  
 block3b_expand_activation (Act  (None, 48, 48, 256)  0          ['block3b_expand_bn[0][0]']      
 ivation)                                                                                         
                                                                                                  
 block3b_project_conv (Conv2D)  (None, 48, 48, 64)   16384       ['block3b_expand_activation[0][0]
                                                                 ']                               
                                                                                                  
 block3b_project_bn (BatchNorma  (None, 48, 48, 64)  256         ['block3b_project_conv[0][0]']   
 lization)                                                                                        
                                                                                                  
 block3b_drop (Dropout)         (None, 48, 48, 64)   0           ['block3b_project_bn[0][0]']     
                                                                                                  
 block3b_add (Add)              (None, 48, 48, 64)   0           ['block3b_drop[0][0]',           
                                                                  'block3a_project_bn[0][0]']     
                                                                                                  
 block3c_expand_conv (Conv2D)   (None, 48, 48, 256)  147456      ['block3b_add[0][0]']            
                                                                                                  
 block3c_expand_bn (BatchNormal  (None, 48, 48, 256)  1024       ['block3c_expand_conv[0][0]']    
 ization)                                                                                         
                                                                                                  
 block3c_expand_activation (Act  (None, 48, 48, 256)  0          ['block3c_expand_bn[0][0]']      
 ivation)                                                                                         
                                                                                                  
 block3c_project_conv (Conv2D)  (None, 48, 48, 64)   16384       ['block3c_expand_activation[0][0]
                                                                 ']                               
                                                                                                  
 block3c_project_bn (BatchNorma  (None, 48, 48, 64)  256         ['block3c_project_conv[0][0]']   
 lization)                                                                                        
                                                                                                  
 block3c_drop (Dropout)         (None, 48, 48, 64)   0           ['block3c_project_bn[0][0]']     
                                                                                                  
 block3c_add (Add)              (None, 48, 48, 64)   0           ['block3c_drop[0][0]',           
                                                                  'block3b_add[0][0]']            
                                                                                                  
 block3d_expand_conv (Conv2D)   (None, 48, 48, 256)  147456      ['block3c_add[0][0]']            
                                                                                                  
 block3d_expand_bn (BatchNormal  (None, 48, 48, 256)  1024       ['block3d_expand_conv[0][0]']    
 ization)                                                                                         
                                                                                                  
 block3d_expand_activation (Act  (None, 48, 48, 256)  0          ['block3d_expand_bn[0][0]']      
 ivation)                                                                                         
                                                                                                  
 block3d_project_conv (Conv2D)  (None, 48, 48, 64)   16384       ['block3d_expand_activation[0][0]
                                                                 ']                               
                                                                                                  
 block3d_project_bn (BatchNorma  (None, 48, 48, 64)  256         ['block3d_project_conv[0][0]']   
 lization)                                                                                        
                                                                                                  
 block3d_drop (Dropout)         (None, 48, 48, 64)   0           ['block3d_project_bn[0][0]']     
                                                                                                  
 block3d_add (Add)              (None, 48, 48, 64)   0           ['block3d_drop[0][0]',           
                                                                  'block3c_add[0][0]']            
                                                                                                  
 block4a_expand_conv (Conv2D)   (None, 48, 48, 256)  16384       ['block3d_add[0][0]']            
                                                                                                  
 block4a_expand_bn (BatchNormal  (None, 48, 48, 256)  1024       ['block4a_expand_conv[0][0]']    
 ization)                                                                                         
                                                                                                  
 block4a_expand_activation (Act  (None, 48, 48, 256)  0          ['block4a_expand_bn[0][0]']      
 ivation)                                                                                         
                                                                                                  
 block4a_dwconv2 (DepthwiseConv  (None, 24, 24, 256)  2304       ['block4a_expand_activation[0][0]
 2D)                                                             ']                               
                                                                                                  
 block4a_bn (BatchNormalization  (None, 24, 24, 256)  1024       ['block4a_dwconv2[0][0]']        
 )                                                                                                
                                                                                                  
 block4a_activation (Activation  (None, 24, 24, 256)  0          ['block4a_bn[0][0]']             
 )                                                                                                
                                                                                                  
 block4a_se_squeeze (GlobalAver  (None, 256)         0           ['block4a_activation[0][0]']     
 agePooling2D)                                                                                    
                                                                                                  
 block4a_se_reshape (Reshape)   (None, 1, 1, 256)    0           ['block4a_se_squeeze[0][0]']     
                                                                                                  
 block4a_se_reduce (Conv2D)     (None, 1, 1, 16)     4112        ['block4a_se_reshape[0][0]']     
                                                                                                  
 block4a_se_expand (Conv2D)     (None, 1, 1, 256)    4352        ['block4a_se_reduce[0][0]']      
                                                                                                  
 block4a_se_excite (Multiply)   (None, 24, 24, 256)  0           ['block4a_activation[0][0]',     
                                                                  'block4a_se_expand[0][0]']      
                                                                                                  
 block4a_project_conv (Conv2D)  (None, 24, 24, 128)  32768       ['block4a_se_excite[0][0]']      
                                                                                                  
 block4a_project_bn (BatchNorma  (None, 24, 24, 128)  512        ['block4a_project_conv[0][0]']   
 lization)                                                                                        
                                                                                                  
 block4b_expand_conv (Conv2D)   (None, 24, 24, 512)  65536       ['block4a_project_bn[0][0]']     
                                                                                                  
 block4b_expand_bn (BatchNormal  (None, 24, 24, 512)  2048       ['block4b_expand_conv[0][0]']    
 ization)                                                                                         
                                                                                                  
 block4b_expand_activation (Act  (None, 24, 24, 512)  0          ['block4b_expand_bn[0][0]']      
 ivation)                                                                                         
                                                                                                  
 block4b_dwconv2 (DepthwiseConv  (None, 24, 24, 512)  4608       ['block4b_expand_activation[0][0]
 2D)                                                             ']                               
                                                                                                  
 block4b_bn (BatchNormalization  (None, 24, 24, 512)  2048       ['block4b_dwconv2[0][0]']        
 )                                                                                                
                                                                                                  
 block4b_activation (Activation  (None, 24, 24, 512)  0          ['block4b_bn[0][0]']             
 )                                                                                                
                                                                                                  
 block4b_se_squeeze (GlobalAver  (None, 512)         0           ['block4b_activation[0][0]']     
 agePooling2D)                                                                                    
                                                                                                  
 block4b_se_reshape (Reshape)   (None, 1, 1, 512)    0           ['block4b_se_squeeze[0][0]']     
                                                                                                  
 block4b_se_reduce (Conv2D)     (None, 1, 1, 32)     16416       ['block4b_se_reshape[0][0]']     
                                                                                                  
 block4b_se_expand (Conv2D)     (None, 1, 1, 512)    16896       ['block4b_se_reduce[0][0]']      
                                                                                                  
 block4b_se_excite (Multiply)   (None, 24, 24, 512)  0           ['block4b_activation[0][0]',     
                                                                  'block4b_se_expand[0][0]']      
                                                                                                  
 block4b_project_conv (Conv2D)  (None, 24, 24, 128)  65536       ['block4b_se_excite[0][0]']      
                                                                                                  
 block4b_project_bn (BatchNorma  (None, 24, 24, 128)  512        ['block4b_project_conv[0][0]']   
 lization)                                                                                        
                                                                                                  
 block4b_drop (Dropout)         (None, 24, 24, 128)  0           ['block4b_project_bn[0][0]']     
                                                                                                  
 block4b_add (Add)              (None, 24, 24, 128)  0           ['block4b_drop[0][0]',           
                                                                  'block4a_project_bn[0][0]']     
                                                                                                  
 block4c_expand_conv (Conv2D)   (None, 24, 24, 512)  65536       ['block4b_add[0][0]']            
                                                                                                  
 block4c_expand_bn (BatchNormal  (None, 24, 24, 512)  2048       ['block4c_expand_conv[0][0]']    
 ization)                                                                                         
                                                                                                  
 block4c_expand_activation (Act  (None, 24, 24, 512)  0          ['block4c_expand_bn[0][0]']      
 ivation)                                                                                         
                                                                                                  
 block4c_dwconv2 (DepthwiseConv  (None, 24, 24, 512)  4608       ['block4c_expand_activation[0][0]
 2D)                                                             ']                               
                                                                                                  
 block4c_bn (BatchNormalization  (None, 24, 24, 512)  2048       ['block4c_dwconv2[0][0]']        
 )                                                                                                
                                                                                                  
 block4c_activation (Activation  (None, 24, 24, 512)  0          ['block4c_bn[0][0]']             
 )                                                                                                
                                                                                                  
 block4c_se_squeeze (GlobalAver  (None, 512)         0           ['block4c_activation[0][0]']     
 agePooling2D)                                                                                    
                                                                                                  
 block4c_se_reshape (Reshape)   (None, 1, 1, 512)    0           ['block4c_se_squeeze[0][0]']     
                                                                                                  
 block4c_se_reduce (Conv2D)     (None, 1, 1, 32)     16416       ['block4c_se_reshape[0][0]']     
                                                                                                  
 block4c_se_expand (Conv2D)     (None, 1, 1, 512)    16896       ['block4c_se_reduce[0][0]']      
                                                                                                  
 block4c_se_excite (Multiply)   (None, 24, 24, 512)  0           ['block4c_activation[0][0]',     
                                                                  'block4c_se_expand[0][0]']      
                                                                                                  
 block4c_project_conv (Conv2D)  (None, 24, 24, 128)  65536       ['block4c_se_excite[0][0]']      
                                                                                                  
 block4c_project_bn (BatchNorma  (None, 24, 24, 128)  512        ['block4c_project_conv[0][0]']   
 lization)                                                                                        
                                                                                                  
 block4c_drop (Dropout)         (None, 24, 24, 128)  0           ['block4c_project_bn[0][0]']     
                                                                                                  
 block4c_add (Add)              (None, 24, 24, 128)  0           ['block4c_drop[0][0]',           
                                                                  'block4b_add[0][0]']            
                                                                                                  
 block4d_expand_conv (Conv2D)   (None, 24, 24, 512)  65536       ['block4c_add[0][0]']            
                                                                                                  
 block4d_expand_bn (BatchNormal  (None, 24, 24, 512)  2048       ['block4d_expand_conv[0][0]']    
 ization)                                                                                         
                                                                                                  
 block4d_expand_activation (Act  (None, 24, 24, 512)  0          ['block4d_expand_bn[0][0]']      
 ivation)                                                                                         
                                                                                                  
 block4d_dwconv2 (DepthwiseConv  (None, 24, 24, 512)  4608       ['block4d_expand_activation[0][0]
 2D)                                                             ']                               
                                                                                                  
 block4d_bn (BatchNormalization  (None, 24, 24, 512)  2048       ['block4d_dwconv2[0][0]']        
 )                                                                                                
                                                                                                  
 block4d_activation (Activation  (None, 24, 24, 512)  0          ['block4d_bn[0][0]']             
 )                                                                                                
                                                                                                  
 block4d_se_squeeze (GlobalAver  (None, 512)         0           ['block4d_activation[0][0]']     
 agePooling2D)                                                                                    
                                                                                                  
 block4d_se_reshape (Reshape)   (None, 1, 1, 512)    0           ['block4d_se_squeeze[0][0]']     
                                                                                                  
 block4d_se_reduce (Conv2D)     (None, 1, 1, 32)     16416       ['block4d_se_reshape[0][0]']     
                                                                                                  
 block4d_se_expand (Conv2D)     (None, 1, 1, 512)    16896       ['block4d_se_reduce[0][0]']      
                                                                                                  
 block4d_se_excite (Multiply)   (None, 24, 24, 512)  0           ['block4d_activation[0][0]',     
                                                                  'block4d_se_expand[0][0]']      
                                                                                                  
 block4d_project_conv (Conv2D)  (None, 24, 24, 128)  65536       ['block4d_se_excite[0][0]']      
                                                                                                  
 block4d_project_bn (BatchNorma  (None, 24, 24, 128)  512        ['block4d_project_conv[0][0]']   
 lization)                                                                                        
                                                                                                  
 block4d_drop (Dropout)         (None, 24, 24, 128)  0           ['block4d_project_bn[0][0]']     
                                                                                                  
 block4d_add (Add)              (None, 24, 24, 128)  0           ['block4d_drop[0][0]',           
                                                                  'block4c_add[0][0]']            
                                                                                                  
 block4e_expand_conv (Conv2D)   (None, 24, 24, 512)  65536       ['block4d_add[0][0]']            
                                                                                                  
 block4e_expand_bn (BatchNormal  (None, 24, 24, 512)  2048       ['block4e_expand_conv[0][0]']    
 ization)                                                                                         
                                                                                                  
 block4e_expand_activation (Act  (None, 24, 24, 512)  0          ['block4e_expand_bn[0][0]']      
 ivation)                                                                                         
                                                                                                  
 block4e_dwconv2 (DepthwiseConv  (None, 24, 24, 512)  4608       ['block4e_expand_activation[0][0]
 2D)                                                             ']                               
                                                                                                  
 block4e_bn (BatchNormalization  (None, 24, 24, 512)  2048       ['block4e_dwconv2[0][0]']        
 )                                                                                                
                                                                                                  
 block4e_activation (Activation  (None, 24, 24, 512)  0          ['block4e_bn[0][0]']             
 )                                                                                                
                                                                                                  
 block4e_se_squeeze (GlobalAver  (None, 512)         0           ['block4e_activation[0][0]']     
 agePooling2D)                                                                                    
                                                                                                  
 block4e_se_reshape (Reshape)   (None, 1, 1, 512)    0           ['block4e_se_squeeze[0][0]']     
                                                                                                  
 block4e_se_reduce (Conv2D)     (None, 1, 1, 32)     16416       ['block4e_se_reshape[0][0]']     
                                                                                                  
 block4e_se_expand (Conv2D)     (None, 1, 1, 512)    16896       ['block4e_se_reduce[0][0]']      
                                                                                                  
 block4e_se_excite (Multiply)   (None, 24, 24, 512)  0           ['block4e_activation[0][0]',     
                                                                  'block4e_se_expand[0][0]']      
                                                                                                  
 block4e_project_conv (Conv2D)  (None, 24, 24, 128)  65536       ['block4e_se_excite[0][0]']      
                                                                                                  
 block4e_project_bn (BatchNorma  (None, 24, 24, 128)  512        ['block4e_project_conv[0][0]']   
 lization)                                                                                        
                                                                                                  
 block4e_drop (Dropout)         (None, 24, 24, 128)  0           ['block4e_project_bn[0][0]']     
                                                                                                  
 block4e_add (Add)              (None, 24, 24, 128)  0           ['block4e_drop[0][0]',           
                                                                  'block4d_add[0][0]']            
                                                                                                  
 block4f_expand_conv (Conv2D)   (None, 24, 24, 512)  65536       ['block4e_add[0][0]']            
                                                                                                  
 block4f_expand_bn (BatchNormal  (None, 24, 24, 512)  2048       ['block4f_expand_conv[0][0]']    
 ization)                                                                                         
                                                                                                  
 block4f_expand_activation (Act  (None, 24, 24, 512)  0          ['block4f_expand_bn[0][0]']      
 ivation)                                                                                         
                                                                                                  
 block4f_dwconv2 (DepthwiseConv  (None, 24, 24, 512)  4608       ['block4f_expand_activation[0][0]
 2D)                                                             ']                               
                                                                                                  
 block4f_bn (BatchNormalization  (None, 24, 24, 512)  2048       ['block4f_dwconv2[0][0]']        
 )                                                                                                
                                                                                                  
 block4f_activation (Activation  (None, 24, 24, 512)  0          ['block4f_bn[0][0]']             
 )                                                                                                
                                                                                                  
 block4f_se_squeeze (GlobalAver  (None, 512)         0           ['block4f_activation[0][0]']     
 agePooling2D)                                                                                    
                                                                                                  
 block4f_se_reshape (Reshape)   (None, 1, 1, 512)    0           ['block4f_se_squeeze[0][0]']     
                                                                                                  
 block4f_se_reduce (Conv2D)     (None, 1, 1, 32)     16416       ['block4f_se_reshape[0][0]']     
                                                                                                  
 block4f_se_expand (Conv2D)     (None, 1, 1, 512)    16896       ['block4f_se_reduce[0][0]']      
                                                                                                  
 block4f_se_excite (Multiply)   (None, 24, 24, 512)  0           ['block4f_activation[0][0]',     
                                                                  'block4f_se_expand[0][0]']      
                                                                                                  
 block4f_project_conv (Conv2D)  (None, 24, 24, 128)  65536       ['block4f_se_excite[0][0]']      
                                                                                                  
 block4f_project_bn (BatchNorma  (None, 24, 24, 128)  512        ['block4f_project_conv[0][0]']   
 lization)                                                                                        
                                                                                                  
 block4f_drop (Dropout)         (None, 24, 24, 128)  0           ['block4f_project_bn[0][0]']     
                                                                                                  
 block4f_add (Add)              (None, 24, 24, 128)  0           ['block4f_drop[0][0]',           
                                                                  'block4e_add[0][0]']            
                                                                                                  
 block5a_expand_conv (Conv2D)   (None, 24, 24, 768)  98304       ['block4f_add[0][0]']            
                                                                                                  
 block5a_expand_bn (BatchNormal  (None, 24, 24, 768)  3072       ['block5a_expand_conv[0][0]']    
 ization)                                                                                         
                                                                                                  
 block5a_expand_activation (Act  (None, 24, 24, 768)  0          ['block5a_expand_bn[0][0]']      
 ivation)                                                                                         
                                                                                                  
 block5a_dwconv2 (DepthwiseConv  (None, 24, 24, 768)  6912       ['block5a_expand_activation[0][0]
 2D)                                                             ']                               
                                                                                                  
 block5a_bn (BatchNormalization  (None, 24, 24, 768)  3072       ['block5a_dwconv2[0][0]']        
 )                                                                                                
                                                                                                  
 block5a_activation (Activation  (None, 24, 24, 768)  0          ['block5a_bn[0][0]']             
 )                                                                                                
                                                                                                  
 block5a_se_squeeze (GlobalAver  (None, 768)         0           ['block5a_activation[0][0]']     
 agePooling2D)                                                                                    
                                                                                                  
 block5a_se_reshape (Reshape)   (None, 1, 1, 768)    0           ['block5a_se_squeeze[0][0]']     
                                                                                                  
 block5a_se_reduce (Conv2D)     (None, 1, 1, 32)     24608       ['block5a_se_reshape[0][0]']     
                                                                                                  
 block5a_se_expand (Conv2D)     (None, 1, 1, 768)    25344       ['block5a_se_reduce[0][0]']      
                                                                                                  
 block5a_se_excite (Multiply)   (None, 24, 24, 768)  0           ['block5a_activation[0][0]',     
                                                                  'block5a_se_expand[0][0]']      
                                                                                                  
 block5a_project_conv (Conv2D)  (None, 24, 24, 160)  122880      ['block5a_se_excite[0][0]']      
                                                                                                  
 block5a_project_bn (BatchNorma  (None, 24, 24, 160)  640        ['block5a_project_conv[0][0]']   
 lization)                                                                                        
                                                                                                  
 block5b_expand_conv (Conv2D)   (None, 24, 24, 960)  153600      ['block5a_project_bn[0][0]']     
                                                                                                  
 block5b_expand_bn (BatchNormal  (None, 24, 24, 960)  3840       ['block5b_expand_conv[0][0]']    
 ization)                                                                                         
                                                                                                  
 block5b_expand_activation (Act  (None, 24, 24, 960)  0          ['block5b_expand_bn[0][0]']      
 ivation)                                                                                         
                                                                                                  
 block5b_dwconv2 (DepthwiseConv  (None, 24, 24, 960)  8640       ['block5b_expand_activation[0][0]
 2D)                                                             ']                               
                                                                                                  
 block5b_bn (BatchNormalization  (None, 24, 24, 960)  3840       ['block5b_dwconv2[0][0]']        
 )                                                                                                
                                                                                                  
 block5b_activation (Activation  (None, 24, 24, 960)  0          ['block5b_bn[0][0]']             
 )                                                                                                
                                                                                                  
 block5b_se_squeeze (GlobalAver  (None, 960)         0           ['block5b_activation[0][0]']     
 agePooling2D)                                                                                    
                                                                                                  
 block5b_se_reshape (Reshape)   (None, 1, 1, 960)    0           ['block5b_se_squeeze[0][0]']     
                                                                                                  
 block5b_se_reduce (Conv2D)     (None, 1, 1, 40)     38440       ['block5b_se_reshape[0][0]']     
                                                                                                  
 block5b_se_expand (Conv2D)     (None, 1, 1, 960)    39360       ['block5b_se_reduce[0][0]']      
                                                                                                  
 block5b_se_excite (Multiply)   (None, 24, 24, 960)  0           ['block5b_activation[0][0]',     
                                                                  'block5b_se_expand[0][0]']      
                                                                                                  
 block5b_project_conv (Conv2D)  (None, 24, 24, 160)  153600      ['block5b_se_excite[0][0]']      
                                                                                                  
 block5b_project_bn (BatchNorma  (None, 24, 24, 160)  640        ['block5b_project_conv[0][0]']   
 lization)                                                                                        
                                                                                                  
 block5b_drop (Dropout)         (None, 24, 24, 160)  0           ['block5b_project_bn[0][0]']     
                                                                                                  
 block5b_add (Add)              (None, 24, 24, 160)  0           ['block5b_drop[0][0]',           
                                                                  'block5a_project_bn[0][0]']     
                                                                                                  
 block5c_expand_conv (Conv2D)   (None, 24, 24, 960)  153600      ['block5b_add[0][0]']            
                                                                                                  
 block5c_expand_bn (BatchNormal  (None, 24, 24, 960)  3840       ['block5c_expand_conv[0][0]']    
 ization)                                                                                         
                                                                                                  
 block5c_expand_activation (Act  (None, 24, 24, 960)  0          ['block5c_expand_bn[0][0]']      
 ivation)                                                                                         
                                                                                                  
 block5c_dwconv2 (DepthwiseConv  (None, 24, 24, 960)  8640       ['block5c_expand_activation[0][0]
 2D)                                                             ']                               
                                                                                                  
 block5c_bn (BatchNormalization  (None, 24, 24, 960)  3840       ['block5c_dwconv2[0][0]']        
 )                                                                                                
                                                                                                  
 block5c_activation (Activation  (None, 24, 24, 960)  0          ['block5c_bn[0][0]']             
 )                                                                                                
                                                                                                  
 block5c_se_squeeze (GlobalAver  (None, 960)         0           ['block5c_activation[0][0]']     
 agePooling2D)                                                                                    
                                                                                                  
 block5c_se_reshape (Reshape)   (None, 1, 1, 960)    0           ['block5c_se_squeeze[0][0]']     
                                                                                                  
 block5c_se_reduce (Conv2D)     (None, 1, 1, 40)     38440       ['block5c_se_reshape[0][0]']     
                                                                                                  
 block5c_se_expand (Conv2D)     (None, 1, 1, 960)    39360       ['block5c_se_reduce[0][0]']      
                                                                                                  
 block5c_se_excite (Multiply)   (None, 24, 24, 960)  0           ['block5c_activation[0][0]',     
                                                                  'block5c_se_expand[0][0]']      
                                                                                                  
 block5c_project_conv (Conv2D)  (None, 24, 24, 160)  153600      ['block5c_se_excite[0][0]']      
                                                                                                  
 block5c_project_bn (BatchNorma  (None, 24, 24, 160)  640        ['block5c_project_conv[0][0]']   
 lization)                                                                                        
                                                                                                  
 block5c_drop (Dropout)         (None, 24, 24, 160)  0           ['block5c_project_bn[0][0]']     
                                                                                                  
 block5c_add (Add)              (None, 24, 24, 160)  0           ['block5c_drop[0][0]',           
                                                                  'block5b_add[0][0]']            
                                                                                                  
 block5d_expand_conv (Conv2D)   (None, 24, 24, 960)  153600      ['block5c_add[0][0]']            
                                                                                                  
 block5d_expand_bn (BatchNormal  (None, 24, 24, 960)  3840       ['block5d_expand_conv[0][0]']    
 ization)                                                                                         
                                                                                                  
 block5d_expand_activation (Act  (None, 24, 24, 960)  0          ['block5d_expand_bn[0][0]']      
 ivation)                                                                                         
                                                                                                  
 block5d_dwconv2 (DepthwiseConv  (None, 24, 24, 960)  8640       ['block5d_expand_activation[0][0]
 2D)                                                             ']                               
                                                                                                  
 block5d_bn (BatchNormalization  (None, 24, 24, 960)  3840       ['block5d_dwconv2[0][0]']        
 )                                                                                                
                                                                                                  
 block5d_activation (Activation  (None, 24, 24, 960)  0          ['block5d_bn[0][0]']             
 )                                                                                                
                                                                                                  
 block5d_se_squeeze (GlobalAver  (None, 960)         0           ['block5d_activation[0][0]']     
 agePooling2D)                                                                                    
                                                                                                  
 block5d_se_reshape (Reshape)   (None, 1, 1, 960)    0           ['block5d_se_squeeze[0][0]']     
                                                                                                  
 block5d_se_reduce (Conv2D)     (None, 1, 1, 40)     38440       ['block5d_se_reshape[0][0]']     
                                                                                                  
 block5d_se_expand (Conv2D)     (None, 1, 1, 960)    39360       ['block5d_se_reduce[0][0]']      
                                                                                                  
 block5d_se_excite (Multiply)   (None, 24, 24, 960)  0           ['block5d_activation[0][0]',     
                                                                  'block5d_se_expand[0][0]']      
                                                                                                  
 block5d_project_conv (Conv2D)  (None, 24, 24, 160)  153600      ['block5d_se_excite[0][0]']      
                                                                                                  
 block5d_project_bn (BatchNorma  (None, 24, 24, 160)  640        ['block5d_project_conv[0][0]']   
 lization)                                                                                        
                                                                                                  
 block5d_drop (Dropout)         (None, 24, 24, 160)  0           ['block5d_project_bn[0][0]']     
                                                                                                  
 block5d_add (Add)              (None, 24, 24, 160)  0           ['block5d_drop[0][0]',           
                                                                  'block5c_add[0][0]']            
                                                                                                  
 block5e_expand_conv (Conv2D)   (None, 24, 24, 960)  153600      ['block5d_add[0][0]']            
                                                                                                  
 block5e_expand_bn (BatchNormal  (None, 24, 24, 960)  3840       ['block5e_expand_conv[0][0]']    
 ization)                                                                                         
                                                                                                  
 block5e_expand_activation (Act  (None, 24, 24, 960)  0          ['block5e_expand_bn[0][0]']      
 ivation)                                                                                         
                                                                                                  
 block5e_dwconv2 (DepthwiseConv  (None, 24, 24, 960)  8640       ['block5e_expand_activation[0][0]
 2D)                                                             ']                               
                                                                                                  
 block5e_bn (BatchNormalization  (None, 24, 24, 960)  3840       ['block5e_dwconv2[0][0]']        
 )                                                                                                
                                                                                                  
 block5e_activation (Activation  (None, 24, 24, 960)  0          ['block5e_bn[0][0]']             
 )                                                                                                
                                                                                                  
 block5e_se_squeeze (GlobalAver  (None, 960)         0           ['block5e_activation[0][0]']     
 agePooling2D)                                                                                    
                                                                                                  
 block5e_se_reshape (Reshape)   (None, 1, 1, 960)    0           ['block5e_se_squeeze[0][0]']     
                                                                                                  
 block5e_se_reduce (Conv2D)     (None, 1, 1, 40)     38440       ['block5e_se_reshape[0][0]']     
                                                                                                  
 block5e_se_expand (Conv2D)     (None, 1, 1, 960)    39360       ['block5e_se_reduce[0][0]']      
                                                                                                  
 block5e_se_excite (Multiply)   (None, 24, 24, 960)  0           ['block5e_activation[0][0]',     
                                                                  'block5e_se_expand[0][0]']      
                                                                                                  
 block5e_project_conv (Conv2D)  (None, 24, 24, 160)  153600      ['block5e_se_excite[0][0]']      
                                                                                                  
 block5e_project_bn (BatchNorma  (None, 24, 24, 160)  640        ['block5e_project_conv[0][0]']   
 lization)                                                                                        
                                                                                                  
 block5e_drop (Dropout)         (None, 24, 24, 160)  0           ['block5e_project_bn[0][0]']     
                                                                                                  
 block5e_add (Add)              (None, 24, 24, 160)  0           ['block5e_drop[0][0]',           
                                                                  'block5d_add[0][0]']            
                                                                                                  
 block5f_expand_conv (Conv2D)   (None, 24, 24, 960)  153600      ['block5e_add[0][0]']            
                                                                                                  
 block5f_expand_bn (BatchNormal  (None, 24, 24, 960)  3840       ['block5f_expand_conv[0][0]']    
 ization)                                                                                         
                                                                                                  
 block5f_expand_activation (Act  (None, 24, 24, 960)  0          ['block5f_expand_bn[0][0]']      
 ivation)                                                                                         
                                                                                                  
 block5f_dwconv2 (DepthwiseConv  (None, 24, 24, 960)  8640       ['block5f_expand_activation[0][0]
 2D)                                                             ']                               
                                                                                                  
 block5f_bn (BatchNormalization  (None, 24, 24, 960)  3840       ['block5f_dwconv2[0][0]']        
 )                                                                                                
                                                                                                  
 block5f_activation (Activation  (None, 24, 24, 960)  0          ['block5f_bn[0][0]']             
 )                                                                                                
                                                                                                  
 block5f_se_squeeze (GlobalAver  (None, 960)         0           ['block5f_activation[0][0]']     
 agePooling2D)                                                                                    
                                                                                                  
 block5f_se_reshape (Reshape)   (None, 1, 1, 960)    0           ['block5f_se_squeeze[0][0]']     
                                                                                                  
 block5f_se_reduce (Conv2D)     (None, 1, 1, 40)     38440       ['block5f_se_reshape[0][0]']     
                                                                                                  
 block5f_se_expand (Conv2D)     (None, 1, 1, 960)    39360       ['block5f_se_reduce[0][0]']      
                                                                                                  
 block5f_se_excite (Multiply)   (None, 24, 24, 960)  0           ['block5f_activation[0][0]',     
                                                                  'block5f_se_expand[0][0]']      
                                                                                                  
 block5f_project_conv (Conv2D)  (None, 24, 24, 160)  153600      ['block5f_se_excite[0][0]']      
                                                                                                  
 block5f_project_bn (BatchNorma  (None, 24, 24, 160)  640        ['block5f_project_conv[0][0]']   
 lization)                                                                                        
                                                                                                  
 block5f_drop (Dropout)         (None, 24, 24, 160)  0           ['block5f_project_bn[0][0]']     
                                                                                                  
 block5f_add (Add)              (None, 24, 24, 160)  0           ['block5f_drop[0][0]',           
                                                                  'block5e_add[0][0]']            
                                                                                                  
 block5g_expand_conv (Conv2D)   (None, 24, 24, 960)  153600      ['block5f_add[0][0]']            
                                                                                                  
 block5g_expand_bn (BatchNormal  (None, 24, 24, 960)  3840       ['block5g_expand_conv[0][0]']    
 ization)                                                                                         
                                                                                                  
 block5g_expand_activation (Act  (None, 24, 24, 960)  0          ['block5g_expand_bn[0][0]']      
 ivation)                                                                                         
                                                                                                  
 block5g_dwconv2 (DepthwiseConv  (None, 24, 24, 960)  8640       ['block5g_expand_activation[0][0]
 2D)                                                             ']                               
                                                                                                  
 block5g_bn (BatchNormalization  (None, 24, 24, 960)  3840       ['block5g_dwconv2[0][0]']        
 )                                                                                                
                                                                                                  
 block5g_activation (Activation  (None, 24, 24, 960)  0          ['block5g_bn[0][0]']             
 )                                                                                                
                                                                                                  
 block5g_se_squeeze (GlobalAver  (None, 960)         0           ['block5g_activation[0][0]']     
 agePooling2D)                                                                                    
                                                                                                  
 block5g_se_reshape (Reshape)   (None, 1, 1, 960)    0           ['block5g_se_squeeze[0][0]']     
                                                                                                  
 block5g_se_reduce (Conv2D)     (None, 1, 1, 40)     38440       ['block5g_se_reshape[0][0]']     
                                                                                                  
 block5g_se_expand (Conv2D)     (None, 1, 1, 960)    39360       ['block5g_se_reduce[0][0]']      
                                                                                                  
 block5g_se_excite (Multiply)   (None, 24, 24, 960)  0           ['block5g_activation[0][0]',     
                                                                  'block5g_se_expand[0][0]']      
                                                                                                  
 block5g_project_conv (Conv2D)  (None, 24, 24, 160)  153600      ['block5g_se_excite[0][0]']      
                                                                                                  
 block5g_project_bn (BatchNorma  (None, 24, 24, 160)  640        ['block5g_project_conv[0][0]']   
 lization)                                                                                        
                                                                                                  
 block5g_drop (Dropout)         (None, 24, 24, 160)  0           ['block5g_project_bn[0][0]']     
                                                                                                  
 block5g_add (Add)              (None, 24, 24, 160)  0           ['block5g_drop[0][0]',           
                                                                  'block5f_add[0][0]']            
                                                                                                  
 block5h_expand_conv (Conv2D)   (None, 24, 24, 960)  153600      ['block5g_add[0][0]']            
                                                                                                  
 block5h_expand_bn (BatchNormal  (None, 24, 24, 960)  3840       ['block5h_expand_conv[0][0]']    
 ization)                                                                                         
                                                                                                  
 block5h_expand_activation (Act  (None, 24, 24, 960)  0          ['block5h_expand_bn[0][0]']      
 ivation)                                                                                         
                                                                                                  
 block5h_dwconv2 (DepthwiseConv  (None, 24, 24, 960)  8640       ['block5h_expand_activation[0][0]
 2D)                                                             ']                               
                                                                                                  
 block5h_bn (BatchNormalization  (None, 24, 24, 960)  3840       ['block5h_dwconv2[0][0]']        
 )                                                                                                
                                                                                                  
 block5h_activation (Activation  (None, 24, 24, 960)  0          ['block5h_bn[0][0]']             
 )                                                                                                
                                                                                                  
 block5h_se_squeeze (GlobalAver  (None, 960)         0           ['block5h_activation[0][0]']     
 agePooling2D)                                                                                    
                                                                                                  
 block5h_se_reshape (Reshape)   (None, 1, 1, 960)    0           ['block5h_se_squeeze[0][0]']     
                                                                                                  
 block5h_se_reduce (Conv2D)     (None, 1, 1, 40)     38440       ['block5h_se_reshape[0][0]']     
                                                                                                  
 block5h_se_expand (Conv2D)     (None, 1, 1, 960)    39360       ['block5h_se_reduce[0][0]']      
                                                                                                  
 block5h_se_excite (Multiply)   (None, 24, 24, 960)  0           ['block5h_activation[0][0]',     
                                                                  'block5h_se_expand[0][0]']      
                                                                                                  
 block5h_project_conv (Conv2D)  (None, 24, 24, 160)  153600      ['block5h_se_excite[0][0]']      
                                                                                                  
 block5h_project_bn (BatchNorma  (None, 24, 24, 160)  640        ['block5h_project_conv[0][0]']   
 lization)                                                                                        
                                                                                                  
 block5h_drop (Dropout)         (None, 24, 24, 160)  0           ['block5h_project_bn[0][0]']     
                                                                                                  
 block5h_add (Add)              (None, 24, 24, 160)  0           ['block5h_drop[0][0]',           
                                                                  'block5g_add[0][0]']            
                                                                                                  
 block5i_expand_conv (Conv2D)   (None, 24, 24, 960)  153600      ['block5h_add[0][0]']            
                                                                                                  
 block5i_expand_bn (BatchNormal  (None, 24, 24, 960)  3840       ['block5i_expand_conv[0][0]']    
 ization)                                                                                         
                                                                                                  
 block5i_expand_activation (Act  (None, 24, 24, 960)  0          ['block5i_expand_bn[0][0]']      
 ivation)                                                                                         
                                                                                                  
 block5i_dwconv2 (DepthwiseConv  (None, 24, 24, 960)  8640       ['block5i_expand_activation[0][0]
 2D)                                                             ']                               
                                                                                                  
 block5i_bn (BatchNormalization  (None, 24, 24, 960)  3840       ['block5i_dwconv2[0][0]']        
 )                                                                                                
                                                                                                  
 block5i_activation (Activation  (None, 24, 24, 960)  0          ['block5i_bn[0][0]']             
 )                                                                                                
                                                                                                  
 block5i_se_squeeze (GlobalAver  (None, 960)         0           ['block5i_activation[0][0]']     
 agePooling2D)                                                                                    
                                                                                                  
 block5i_se_reshape (Reshape)   (None, 1, 1, 960)    0           ['block5i_se_squeeze[0][0]']     
                                                                                                  
 block5i_se_reduce (Conv2D)     (None, 1, 1, 40)     38440       ['block5i_se_reshape[0][0]']     
                                                                                                  
 block5i_se_expand (Conv2D)     (None, 1, 1, 960)    39360       ['block5i_se_reduce[0][0]']      
                                                                                                  
 block5i_se_excite (Multiply)   (None, 24, 24, 960)  0           ['block5i_activation[0][0]',     
                                                                  'block5i_se_expand[0][0]']      
                                                                                                  
 block5i_project_conv (Conv2D)  (None, 24, 24, 160)  153600      ['block5i_se_excite[0][0]']      
                                                                                                  
 block5i_project_bn (BatchNorma  (None, 24, 24, 160)  640        ['block5i_project_conv[0][0]']   
 lization)                                                                                        
                                                                                                  
 block5i_drop (Dropout)         (None, 24, 24, 160)  0           ['block5i_project_bn[0][0]']     
                                                                                                  
 block5i_add (Add)              (None, 24, 24, 160)  0           ['block5i_drop[0][0]',           
                                                                  'block5h_add[0][0]']            
                                                                                                  
 block6a_expand_conv (Conv2D)   (None, 24, 24, 960)  153600      ['block5i_add[0][0]']            
                                                                                                  
 block6a_expand_bn (BatchNormal  (None, 24, 24, 960)  3840       ['block6a_expand_conv[0][0]']    
 ization)                                                                                         
                                                                                                  
 block6a_expand_activation (Act  (None, 24, 24, 960)  0          ['block6a_expand_bn[0][0]']      
 ivation)                                                                                         
                                                                                                  
 block6a_dwconv2 (DepthwiseConv  (None, 12, 12, 960)  8640       ['block6a_expand_activation[0][0]
 2D)                                                             ']                               
                                                                                                  
 block6a_bn (BatchNormalization  (None, 12, 12, 960)  3840       ['block6a_dwconv2[0][0]']        
 )                                                                                                
                                                                                                  
 block6a_activation (Activation  (None, 12, 12, 960)  0          ['block6a_bn[0][0]']             
 )                                                                                                
                                                                                                  
 block6a_se_squeeze (GlobalAver  (None, 960)         0           ['block6a_activation[0][0]']     
 agePooling2D)                                                                                    
                                                                                                  
 block6a_se_reshape (Reshape)   (None, 1, 1, 960)    0           ['block6a_se_squeeze[0][0]']     
                                                                                                  
 block6a_se_reduce (Conv2D)     (None, 1, 1, 40)     38440       ['block6a_se_reshape[0][0]']     
                                                                                                  
 block6a_se_expand (Conv2D)     (None, 1, 1, 960)    39360       ['block6a_se_reduce[0][0]']      
                                                                                                  
 block6a_se_excite (Multiply)   (None, 12, 12, 960)  0           ['block6a_activation[0][0]',     
                                                                  'block6a_se_expand[0][0]']      
                                                                                                  
 block6a_project_conv (Conv2D)  (None, 12, 12, 256)  245760      ['block6a_se_excite[0][0]']      
                                                                                                  
 block6a_project_bn (BatchNorma  (None, 12, 12, 256)  1024       ['block6a_project_conv[0][0]']   
 lization)                                                                                        
                                                                                                  
 block6b_expand_conv (Conv2D)   (None, 12, 12, 1536  393216      ['block6a_project_bn[0][0]']     
                                )                                                                 
…
 block6b_bn (BatchNormalization  (None, 12, 12, 1536  6144       ['block6b_dwconv2[0][0]']        
 )                              )                                                                 
                                                                                                  
 block6b_activation (Activation  (None, 12, 12, 1536  0          ['block6b_bn[0][0]']             
 )                              )                                                                 
                                                                                                  
 block6b_se_squeeze (GlobalAver  (None, 1536)        0           ['block6b_activation[0][0]']     
 agePooling2D)                                                                                    
                                                                                                  
 block6b_se_reshape (Reshape)   (None, 1, 1, 1536)   0           ['block6b_se_squeeze[0][0]']     
                                                                                                  
 block6b_se_reduce (Conv2D)     (None, 1, 1, 64)     98368       ['block6b_se_reshape[0][0]']     
                                                                                                  
 block6b_se_expand (Conv2D)     (None, 1, 1, 1536)   99840       ['block6b_se_reduce[0][0]']      
                                                                                                  
 block6b_se_excite (Multiply)   (None, 12, 12, 1536  0           ['block6b_activation[0][0]',     
                                )                                 'block6b_se_expand[0][0]']      
                                                                                                  
 block6b_project_conv (Conv2D)  (None, 12, 12, 256)  393216      ['block6b_se_excite[0][0]']      
                                                                                                  
 block6b_project_bn (BatchNorma  (None, 12, 12, 256)  1024       ['block6b_project_conv[0][0]']   
 lization)                                                                                        
                                                                                                  
 block6b_drop (Dropout)         (None, 12, 12, 256)  0           ['block6b_project_bn[0][0]']     
                                                                                                  
 block6b_add (Add)              (None, 12, 12, 256)  0           ['block6b_drop[0][0]',           
                                                                  'block6a_project_bn[0][0]']     
                                                                                                  
 block6c_expand_conv (Conv2D)   (None, 12, 12, 1536  393216      ['block6b_add[0][0]']            
                                )                                                                 
…
 top_bn (BatchNormalization)    (None, 12, 12, 1280  5120        ['top_conv[0][0]']               
                                )                                                                 
                                                                                                  
 top_activation (Activation)    (None, 12, 12, 1280  0           ['top_bn[0][0]']                 
                                )                                                                 
                                                                                                  
 global_average_pooling2d (Glob  (None, 1280)        0           ['top_activation[0][0]']         
 alAveragePooling2D)                                                                              
                                                                                                  
 dropout (Dropout)              (None, 1280)         0           ['global_average_pooling2d[0][0]'
                                                                 ]                                
                                                                                                  
 dense (Dense)                  (None, 2048)         2623488     ['dropout[0][0]']                
                                                                                                  
 dropout_1 (Dropout)            (None, 2048)         0           ['dense[0][0]']                  
                                                                                                  
 dense_1 (Dense)                (None, 2)            4098        ['dropout_1[0][0]']              
                                                                                                  
==================================================================================================
Total params: 22,958,946
Trainable params: 22,805,074
Non-trainable params: 153,872
__________________________________________________________________________________________________
