…
 batch_normalization_2 (BatchNo  (None, 147, 147, 64  192        ['conv2d_2[0][0]']               
 rmalization)                   )                                                                 
                                                                                                  
 activation_2 (Activation)      (None, 147, 147, 64  0           ['batch_normalization_2[0][0]']  
                                )                                                                 
                                                                                                  
 max_pooling2d (MaxPooling2D)   (None, 73, 73, 64)   0           ['activation_2[0][0]']           
                                                                                                  
 conv2d_3 (Conv2D)              (None, 73, 73, 80)   5120        ['max_pooling2d[0][0]']          
                                                                                                  
 batch_normalization_3 (BatchNo  (None, 73, 73, 80)  240         ['conv2d_3[0][0]']               
 rmalization)                                                                                     
                                                                                                  
 activation_3 (Activation)      (None, 73, 73, 80)   0           ['batch_normalization_3[0][0]']  
                                                                                                  
 conv2d_4 (Conv2D)              (None, 71, 71, 192)  138240      ['activation_3[0][0]']           
                                                                                                  
 batch_normalization_4 (BatchNo  (None, 71, 71, 192)  576        ['conv2d_4[0][0]']               
 rmalization)                                                                                     
                                                                                                  
 activation_4 (Activation)      (None, 71, 71, 192)  0           ['batch_normalization_4[0][0]']  
                                                                                                  
 max_pooling2d_1 (MaxPooling2D)  (None, 35, 35, 192)  0          ['activation_4[0][0]']           
                                                                                                  
 conv2d_8 (Conv2D)              (None, 35, 35, 64)   12288       ['max_pooling2d_1[0][0]']        
                                                                                                  
 batch_normalization_8 (BatchNo  (None, 35, 35, 64)  192         ['conv2d_8[0][0]']               
 rmalization)                                                                                     
                                                                                                  
 activation_8 (Activation)      (None, 35, 35, 64)   0           ['batch_normalization_8[0][0]']  
                                                                                                  
 conv2d_6 (Conv2D)              (None, 35, 35, 48)   9216        ['max_pooling2d_1[0][0]']        
                                                                                                  
 conv2d_9 (Conv2D)              (None, 35, 35, 96)   55296       ['activation_8[0][0]']           
                                                                                                  
 batch_normalization_6 (BatchNo  (None, 35, 35, 48)  144         ['conv2d_6[0][0]']               
 rmalization)                                                                                     
                                                                                                  
 batch_normalization_9 (BatchNo  (None, 35, 35, 96)  288         ['conv2d_9[0][0]']               
 rmalization)                                                                                     
                                                                                                  
 activation_6 (Activation)      (None, 35, 35, 48)   0           ['batch_normalization_6[0][0]']  
                                                                                                  
 activation_9 (Activation)      (None, 35, 35, 96)   0           ['batch_normalization_9[0][0]']  
                                                                                                  
 average_pooling2d (AveragePool  (None, 35, 35, 192)  0          ['max_pooling2d_1[0][0]']        
 ing2D)                                                                                           
                                                                                                  
 conv2d_5 (Conv2D)              (None, 35, 35, 96)   18432       ['max_pooling2d_1[0][0]']        
                                                                                                  
 conv2d_7 (Conv2D)              (None, 35, 35, 64)   76800       ['activation_6[0][0]']           
                                                                                                  
 conv2d_10 (Conv2D)             (None, 35, 35, 96)   82944       ['activation_9[0][0]']           
                                                                                                  
 conv2d_11 (Conv2D)             (None, 35, 35, 64)   12288       ['average_pooling2d[0][0]']      
                                                                                                  
 batch_normalization_5 (BatchNo  (None, 35, 35, 96)  288         ['conv2d_5[0][0]']               
 rmalization)                                                                                     
                                                                                                  
 batch_normalization_7 (BatchNo  (None, 35, 35, 64)  192         ['conv2d_7[0][0]']               
 rmalization)                                                                                     
                                                                                                  
 batch_normalization_10 (BatchN  (None, 35, 35, 96)  288         ['conv2d_10[0][0]']              
 ormalization)                                                                                    
                                                                                                  
 batch_normalization_11 (BatchN  (None, 35, 35, 64)  192         ['conv2d_11[0][0]']              
 ormalization)                                                                                    
                                                                                                  
 activation_5 (Activation)      (None, 35, 35, 96)   0           ['batch_normalization_5[0][0]']  
                                                                                                  
 activation_7 (Activation)      (None, 35, 35, 64)   0           ['batch_normalization_7[0][0]']  
                                                                                                  
 activation_10 (Activation)     (None, 35, 35, 96)   0           ['batch_normalization_10[0][0]'] 
                                                                                                  
 activation_11 (Activation)     (None, 35, 35, 64)   0           ['batch_normalization_11[0][0]'] 
                                                                                                  
 mixed_5b (Concatenate)         (None, 35, 35, 320)  0           ['activation_5[0][0]',           
                                                                  'activation_7[0][0]',           
                                                                  'activation_10[0][0]',          
                                                                  'activation_11[0][0]']          
                                                                                                  
 conv2d_15 (Conv2D)             (None, 35, 35, 32)   10240       ['mixed_5b[0][0]']               
                                                                                                  
 batch_normalization_15 (BatchN  (None, 35, 35, 32)  96          ['conv2d_15[0][0]']              
 ormalization)                                                                                    
                                                                                                  
 activation_15 (Activation)     (None, 35, 35, 32)   0           ['batch_normalization_15[0][0]'] 
                                                                                                  
 conv2d_13 (Conv2D)             (None, 35, 35, 32)   10240       ['mixed_5b[0][0]']               
                                                                                                  
 conv2d_16 (Conv2D)             (None, 35, 35, 48)   13824       ['activation_15[0][0]']          
                                                                                                  
 batch_normalization_13 (BatchN  (None, 35, 35, 32)  96          ['conv2d_13[0][0]']              
 ormalization)                                                                                    
                                                                                                  
 batch_normalization_16 (BatchN  (None, 35, 35, 48)  144         ['conv2d_16[0][0]']              
 ormalization)                                                                                    
                                                                                                  
 activation_13 (Activation)     (None, 35, 35, 32)   0           ['batch_normalization_13[0][0]'] 
                                                                                                  
 activation_16 (Activation)     (None, 35, 35, 48)   0           ['batch_normalization_16[0][0]'] 
                                                                                                  
 conv2d_12 (Conv2D)             (None, 35, 35, 32)   10240       ['mixed_5b[0][0]']               
                                                                                                  
 conv2d_14 (Conv2D)             (None, 35, 35, 32)   9216        ['activation_13[0][0]']          
                                                                                                  
 conv2d_17 (Conv2D)             (None, 35, 35, 64)   27648       ['activation_16[0][0]']          
                                                                                                  
 batch_normalization_12 (BatchN  (None, 35, 35, 32)  96          ['conv2d_12[0][0]']              
 ormalization)                                                                                    
                                                                                                  
 batch_normalization_14 (BatchN  (None, 35, 35, 32)  96          ['conv2d_14[0][0]']              
 ormalization)                                                                                    
                                                                                                  
 batch_normalization_17 (BatchN  (None, 35, 35, 64)  192         ['conv2d_17[0][0]']              
 ormalization)                                                                                    
                                                                                                  
 activation_12 (Activation)     (None, 35, 35, 32)   0           ['batch_normalization_12[0][0]'] 
                                                                                                  
 activation_14 (Activation)     (None, 35, 35, 32)   0           ['batch_normalization_14[0][0]'] 
                                                                                                  
 activation_17 (Activation)     (None, 35, 35, 64)   0           ['batch_normalization_17[0][0]'] 
                                                                                                  
 block35_1_mixed (Concatenate)  (None, 35, 35, 128)  0           ['activation_12[0][0]',          
                                                                  'activation_14[0][0]',          
                                                                  'activation_17[0][0]']          
                                                                                                  
 block35_1_conv (Conv2D)        (None, 35, 35, 320)  41280       ['block35_1_mixed[0][0]']        
                                                                                                  
 block35_1 (Lambda)             (None, 35, 35, 320)  0           ['mixed_5b[0][0]',               
                                                                  'block35_1_conv[0][0]']         
                                                                                                  
 block35_1_ac (Activation)      (None, 35, 35, 320)  0           ['block35_1[0][0]']              
                                                                                                  
 conv2d_21 (Conv2D)             (None, 35, 35, 32)   10240       ['block35_1_ac[0][0]']           
                                                                                                  
 batch_normalization_21 (BatchN  (None, 35, 35, 32)  96          ['conv2d_21[0][0]']              
 ormalization)                                                                                    
                                                                                                  
 activation_21 (Activation)     (None, 35, 35, 32)   0           ['batch_normalization_21[0][0]'] 
                                                                                                  
 conv2d_19 (Conv2D)             (None, 35, 35, 32)   10240       ['block35_1_ac[0][0]']           
                                                                                                  
 conv2d_22 (Conv2D)             (None, 35, 35, 48)   13824       ['activation_21[0][0]']          
                                                                                                  
 batch_normalization_19 (BatchN  (None, 35, 35, 32)  96          ['conv2d_19[0][0]']              
 ormalization)                                                                                    
                                                                                                  
 batch_normalization_22 (BatchN  (None, 35, 35, 48)  144         ['conv2d_22[0][0]']              
 ormalization)                                                                                    
                                                                                                  
 activation_19 (Activation)     (None, 35, 35, 32)   0           ['batch_normalization_19[0][0]'] 
                                                                                                  
 activation_22 (Activation)     (None, 35, 35, 48)   0           ['batch_normalization_22[0][0]'] 
                                                                                                  
 conv2d_18 (Conv2D)             (None, 35, 35, 32)   10240       ['block35_1_ac[0][0]']           
                                                                                                  
 conv2d_20 (Conv2D)             (None, 35, 35, 32)   9216        ['activation_19[0][0]']          
                                                                                                  
 conv2d_23 (Conv2D)             (None, 35, 35, 64)   27648       ['activation_22[0][0]']          
                                                                                                  
 batch_normalization_18 (BatchN  (None, 35, 35, 32)  96          ['conv2d_18[0][0]']              
 ormalization)                                                                                    
                                                                                                  
 batch_normalization_20 (BatchN  (None, 35, 35, 32)  96          ['conv2d_20[0][0]']              
 ormalization)                                                                                    
                                                                                                  
 batch_normalization_23 (BatchN  (None, 35, 35, 64)  192         ['conv2d_23[0][0]']              
 ormalization)                                                                                    
                                                                                                  
 activation_18 (Activation)     (None, 35, 35, 32)   0           ['batch_normalization_18[0][0]'] 
                                                                                                  
 activation_20 (Activation)     (None, 35, 35, 32)   0           ['batch_normalization_20[0][0]'] 
                                                                                                  
 activation_23 (Activation)     (None, 35, 35, 64)   0           ['batch_normalization_23[0][0]'] 
                                                                                                  
 block35_2_mixed (Concatenate)  (None, 35, 35, 128)  0           ['activation_18[0][0]',          
                                                                  'activation_20[0][0]',          
                                                                  'activation_23[0][0]']          
                                                                                                  
 block35_2_conv (Conv2D)        (None, 35, 35, 320)  41280       ['block35_2_mixed[0][0]']        
                                                                                                  
 block35_2 (Lambda)             (None, 35, 35, 320)  0           ['block35_1_ac[0][0]',           
                                                                  'block35_2_conv[0][0]']         
                                                                                                  
 block35_2_ac (Activation)      (None, 35, 35, 320)  0           ['block35_2[0][0]']              
                                                                                                  
 conv2d_27 (Conv2D)             (None, 35, 35, 32)   10240       ['block35_2_ac[0][0]']           
                                                                                                  
 batch_normalization_27 (BatchN  (None, 35, 35, 32)  96          ['conv2d_27[0][0]']              
 ormalization)                                                                                    
                                                                                                  
 activation_27 (Activation)     (None, 35, 35, 32)   0           ['batch_normalization_27[0][0]'] 
                                                                                                  
 conv2d_25 (Conv2D)             (None, 35, 35, 32)   10240       ['block35_2_ac[0][0]']           
                                                                                                  
 conv2d_28 (Conv2D)             (None, 35, 35, 48)   13824       ['activation_27[0][0]']          
                                                                                                  
 batch_normalization_25 (BatchN  (None, 35, 35, 32)  96          ['conv2d_25[0][0]']              
 ormalization)                                                                                    
                                                                                                  
 batch_normalization_28 (BatchN  (None, 35, 35, 48)  144         ['conv2d_28[0][0]']              
 ormalization)                                                                                    
                                                                                                  
 activation_25 (Activation)     (None, 35, 35, 32)   0           ['batch_normalization_25[0][0]'] 
                                                                                                  
 activation_28 (Activation)     (None, 35, 35, 48)   0           ['batch_normalization_28[0][0]'] 
                                                                                                  
 conv2d_24 (Conv2D)             (None, 35, 35, 32)   10240       ['block35_2_ac[0][0]']           
                                                                                                  
 conv2d_26 (Conv2D)             (None, 35, 35, 32)   9216        ['activation_25[0][0]']          
                                                                                                  
 conv2d_29 (Conv2D)             (None, 35, 35, 64)   27648       ['activation_28[0][0]']          
                                                                                                  
 batch_normalization_24 (BatchN  (None, 35, 35, 32)  96          ['conv2d_24[0][0]']              
 ormalization)                                                                                    
                                                                                                  
 batch_normalization_26 (BatchN  (None, 35, 35, 32)  96          ['conv2d_26[0][0]']              
 ormalization)                                                                                    
                                                                                                  
 batch_normalization_29 (BatchN  (None, 35, 35, 64)  192         ['conv2d_29[0][0]']              
 ormalization)                                                                                    
                                                                                                  
 activation_24 (Activation)     (None, 35, 35, 32)   0           ['batch_normalization_24[0][0]'] 
                                                                                                  
 activation_26 (Activation)     (None, 35, 35, 32)   0           ['batch_normalization_26[0][0]'] 
                                                                                                  
 activation_29 (Activation)     (None, 35, 35, 64)   0           ['batch_normalization_29[0][0]'] 
                                                                                                  
 block35_3_mixed (Concatenate)  (None, 35, 35, 128)  0           ['activation_24[0][0]',          
                                                                  'activation_26[0][0]',          
                                                                  'activation_29[0][0]']          
                                                                                                  
 block35_3_conv (Conv2D)        (None, 35, 35, 320)  41280       ['block35_3_mixed[0][0]']        
                                                                                                  
 block35_3 (Lambda)             (None, 35, 35, 320)  0           ['block35_2_ac[0][0]',           
                                                                  'block35_3_conv[0][0]']         
                                                                                                  
 block35_3_ac (Activation)      (None, 35, 35, 320)  0           ['block35_3[0][0]']              
                                                                                                  
 conv2d_33 (Conv2D)             (None, 35, 35, 32)   10240       ['block35_3_ac[0][0]']           
                                                                                                  
 batch_normalization_33 (BatchN  (None, 35, 35, 32)  96          ['conv2d_33[0][0]']              
 ormalization)                                                                                    
                                                                                                  
 activation_33 (Activation)     (None, 35, 35, 32)   0           ['batch_normalization_33[0][0]'] 
                                                                                                  
 conv2d_31 (Conv2D)             (None, 35, 35, 32)   10240       ['block35_3_ac[0][0]']           
                                                                                                  
 conv2d_34 (Conv2D)             (None, 35, 35, 48)   13824       ['activation_33[0][0]']          
                                                                                                  
 batch_normalization_31 (BatchN  (None, 35, 35, 32)  96          ['conv2d_31[0][0]']              
 ormalization)                                                                                    
                                                                                                  
 batch_normalization_34 (BatchN  (None, 35, 35, 48)  144         ['conv2d_34[0][0]']              
 ormalization)                                                                                    
                                                                                                  
 activation_31 (Activation)     (None, 35, 35, 32)   0           ['batch_normalization_31[0][0]'] 
                                                                                                  
 activation_34 (Activation)     (None, 35, 35, 48)   0           ['batch_normalization_34[0][0]'] 
                                                                                                  
 conv2d_30 (Conv2D)             (None, 35, 35, 32)   10240       ['block35_3_ac[0][0]']           
                                                                                                  
 conv2d_32 (Conv2D)             (None, 35, 35, 32)   9216        ['activation_31[0][0]']          
                                                                                                  
 conv2d_35 (Conv2D)             (None, 35, 35, 64)   27648       ['activation_34[0][0]']          
                                                                                                  
 batch_normalization_30 (BatchN  (None, 35, 35, 32)  96          ['conv2d_30[0][0]']              
 ormalization)                                                                                    
                                                                                                  
 batch_normalization_32 (BatchN  (None, 35, 35, 32)  96          ['conv2d_32[0][0]']              
 ormalization)                                                                                    
                                                                                                  
 batch_normalization_35 (BatchN  (None, 35, 35, 64)  192         ['conv2d_35[0][0]']              
 ormalization)                                                                                    
                                                                                                  
 activation_30 (Activation)     (None, 35, 35, 32)   0           ['batch_normalization_30[0][0]'] 
                                                                                                  
 activation_32 (Activation)     (None, 35, 35, 32)   0           ['batch_normalization_32[0][0]'] 
                                                                                                  
 activation_35 (Activation)     (None, 35, 35, 64)   0           ['batch_normalization_35[0][0]'] 
                                                                                                  
 block35_4_mixed (Concatenate)  (None, 35, 35, 128)  0           ['activation_30[0][0]',          
                                                                  'activation_32[0][0]',          
                                                                  'activation_35[0][0]']          
                                                                                                  
 block35_4_conv (Conv2D)        (None, 35, 35, 320)  41280       ['block35_4_mixed[0][0]']        
                                                                                                  
 block35_4 (Lambda)             (None, 35, 35, 320)  0           ['block35_3_ac[0][0]',           
                                                                  'block35_4_conv[0][0]']         
                                                                                                  
 block35_4_ac (Activation)      (None, 35, 35, 320)  0           ['block35_4[0][0]']              
                                                                                                  
 conv2d_39 (Conv2D)             (None, 35, 35, 32)   10240       ['block35_4_ac[0][0]']           
                                                                                                  
 batch_normalization_39 (BatchN  (None, 35, 35, 32)  96          ['conv2d_39[0][0]']              
 ormalization)                                                                                    
                                                                                                  
 activation_39 (Activation)     (None, 35, 35, 32)   0           ['batch_normalization_39[0][0]'] 
                                                                                                  
 conv2d_37 (Conv2D)             (None, 35, 35, 32)   10240       ['block35_4_ac[0][0]']           
                                                                                                  
 conv2d_40 (Conv2D)             (None, 35, 35, 48)   13824       ['activation_39[0][0]']          
                                                                                                  
 batch_normalization_37 (BatchN  (None, 35, 35, 32)  96          ['conv2d_37[0][0]']              
 ormalization)                                                                                    
                                                                                                  
 batch_normalization_40 (BatchN  (None, 35, 35, 48)  144         ['conv2d_40[0][0]']              
 ormalization)                                                                                    
                                                                                                  
 activation_37 (Activation)     (None, 35, 35, 32)   0           ['batch_normalization_37[0][0]'] 
                                                                                                  
 activation_40 (Activation)     (None, 35, 35, 48)   0           ['batch_normalization_40[0][0]'] 
                                                                                                  
 conv2d_36 (Conv2D)             (None, 35, 35, 32)   10240       ['block35_4_ac[0][0]']           
                                                                                                  
 conv2d_38 (Conv2D)             (None, 35, 35, 32)   9216        ['activation_37[0][0]']          
                                                                                                  
 conv2d_41 (Conv2D)             (None, 35, 35, 64)   27648       ['activation_40[0][0]']          
                                                                                                  
 batch_normalization_36 (BatchN  (None, 35, 35, 32)  96          ['conv2d_36[0][0]']              
 ormalization)                                                                                    
                                                                                                  
 batch_normalization_38 (BatchN  (None, 35, 35, 32)  96          ['conv2d_38[0][0]']              
 ormalization)                                                                                    
                                                                                                  
 batch_normalization_41 (BatchN  (None, 35, 35, 64)  192         ['conv2d_41[0][0]']              
 ormalization)                                                                                    
                                                                                                  
 activation_36 (Activation)     (None, 35, 35, 32)   0           ['batch_normalization_36[0][0]'] 
                                                                                                  
 activation_38 (Activation)     (None, 35, 35, 32)   0           ['batch_normalization_38[0][0]'] 
                                                                                                  
 activation_41 (Activation)     (None, 35, 35, 64)   0           ['batch_normalization_41[0][0]'] 
                                                                                                  
 block35_5_mixed (Concatenate)  (None, 35, 35, 128)  0           ['activation_36[0][0]',          
                                                                  'activation_38[0][0]',          
                                                                  'activation_41[0][0]']          
                                                                                                  
 block35_5_conv (Conv2D)        (None, 35, 35, 320)  41280       ['block35_5_mixed[0][0]']        
                                                                                                  
 block35_5 (Lambda)             (None, 35, 35, 320)  0           ['block35_4_ac[0][0]',           
                                                                  'block35_5_conv[0][0]']         
                                                                                                  
 block35_5_ac (Activation)      (None, 35, 35, 320)  0           ['block35_5[0][0]']              
                                                                                                  
 conv2d_45 (Conv2D)             (None, 35, 35, 32)   10240       ['block35_5_ac[0][0]']           
                                                                                                  
 batch_normalization_45 (BatchN  (None, 35, 35, 32)  96          ['conv2d_45[0][0]']              
 ormalization)                                                                                    
                                                                                                  
 activation_45 (Activation)     (None, 35, 35, 32)   0           ['batch_normalization_45[0][0]'] 
                                                                                                  
 conv2d_43 (Conv2D)             (None, 35, 35, 32)   10240       ['block35_5_ac[0][0]']           
                                                                                                  
 conv2d_46 (Conv2D)             (None, 35, 35, 48)   13824       ['activation_45[0][0]']          
                                                                                                  
 batch_normalization_43 (BatchN  (None, 35, 35, 32)  96          ['conv2d_43[0][0]']              
 ormalization)                                                                                    
                                                                                                  
 batch_normalization_46 (BatchN  (None, 35, 35, 48)  144         ['conv2d_46[0][0]']              
 ormalization)                                                                                    
                                                                                                  
 activation_43 (Activation)     (None, 35, 35, 32)   0           ['batch_normalization_43[0][0]'] 
                                                                                                  
 activation_46 (Activation)     (None, 35, 35, 48)   0           ['batch_normalization_46[0][0]'] 
                                                                                                  
 conv2d_42 (Conv2D)             (None, 35, 35, 32)   10240       ['block35_5_ac[0][0]']           
                                                                                                  
 conv2d_44 (Conv2D)             (None, 35, 35, 32)   9216        ['activation_43[0][0]']          
                                                                                                  
 conv2d_47 (Conv2D)             (None, 35, 35, 64)   27648       ['activation_46[0][0]']          
                                                                                                  
 batch_normalization_42 (BatchN  (None, 35, 35, 32)  96          ['conv2d_42[0][0]']              
 ormalization)                                                                                    
                                                                                                  
 batch_normalization_44 (BatchN  (None, 35, 35, 32)  96          ['conv2d_44[0][0]']              
 ormalization)                                                                                    
                                                                                                  
 batch_normalization_47 (BatchN  (None, 35, 35, 64)  192         ['conv2d_47[0][0]']              
 ormalization)                                                                                    
                                                                                                  
 activation_42 (Activation)     (None, 35, 35, 32)   0           ['batch_normalization_42[0][0]'] 
                                                                                                  
 activation_44 (Activation)     (None, 35, 35, 32)   0           ['batch_normalization_44[0][0]'] 
                                                                                                  
 activation_47 (Activation)     (None, 35, 35, 64)   0           ['batch_normalization_47[0][0]'] 
                                                                                                  
 block35_6_mixed (Concatenate)  (None, 35, 35, 128)  0           ['activation_42[0][0]',          
                                                                  'activation_44[0][0]',          
                                                                  'activation_47[0][0]']          
                                                                                                  
 block35_6_conv (Conv2D)        (None, 35, 35, 320)  41280       ['block35_6_mixed[0][0]']        
                                                                                                  
 block35_6 (Lambda)             (None, 35, 35, 320)  0           ['block35_5_ac[0][0]',           
                                                                  'block35_6_conv[0][0]']         
                                                                                                  
 block35_6_ac (Activation)      (None, 35, 35, 320)  0           ['block35_6[0][0]']              
                                                                                                  
 conv2d_51 (Conv2D)             (None, 35, 35, 32)   10240       ['block35_6_ac[0][0]']           
                                                                                                  
 batch_normalization_51 (BatchN  (None, 35, 35, 32)  96          ['conv2d_51[0][0]']              
 ormalization)                                                                                    
                                                                                                  
 activation_51 (Activation)     (None, 35, 35, 32)   0           ['batch_normalization_51[0][0]'] 
                                                                                                  
 conv2d_49 (Conv2D)             (None, 35, 35, 32)   10240       ['block35_6_ac[0][0]']           
                                                                                                  
 conv2d_52 (Conv2D)             (None, 35, 35, 48)   13824       ['activation_51[0][0]']          
                                                                                                  
 batch_normalization_49 (BatchN  (None, 35, 35, 32)  96          ['conv2d_49[0][0]']              
 ormalization)                                                                                    
                                                                                                  
 batch_normalization_52 (BatchN  (None, 35, 35, 48)  144         ['conv2d_52[0][0]']              
 ormalization)                                                                                    
                                                                                                  
 activation_49 (Activation)     (None, 35, 35, 32)   0           ['batch_normalization_49[0][0]'] 
                                                                                                  
 activation_52 (Activation)     (None, 35, 35, 48)   0           ['batch_normalization_52[0][0]'] 
                                                                                                  
 conv2d_48 (Conv2D)             (None, 35, 35, 32)   10240       ['block35_6_ac[0][0]']           
                                                                                                  
 conv2d_50 (Conv2D)             (None, 35, 35, 32)   9216        ['activation_49[0][0]']          
                                                                                                  
 conv2d_53 (Conv2D)             (None, 35, 35, 64)   27648       ['activation_52[0][0]']          
                                                                                                  
 batch_normalization_48 (BatchN  (None, 35, 35, 32)  96          ['conv2d_48[0][0]']              
 ormalization)                                                                                    
                                                                                                  
 batch_normalization_50 (BatchN  (None, 35, 35, 32)  96          ['conv2d_50[0][0]']              
 ormalization)                                                                                    
                                                                                                  
 batch_normalization_53 (BatchN  (None, 35, 35, 64)  192         ['conv2d_53[0][0]']              
 ormalization)                                                                                    
                                                                                                  
 activation_48 (Activation)     (None, 35, 35, 32)   0           ['batch_normalization_48[0][0]'] 
                                                                                                  
 activation_50 (Activation)     (None, 35, 35, 32)   0           ['batch_normalization_50[0][0]'] 
                                                                                                  
 activation_53 (Activation)     (None, 35, 35, 64)   0           ['batch_normalization_53[0][0]'] 
                                                                                                  
 block35_7_mixed (Concatenate)  (None, 35, 35, 128)  0           ['activation_48[0][0]',          
                                                                  'activation_50[0][0]',          
                                                                  'activation_53[0][0]']          
                                                                                                  
 block35_7_conv (Conv2D)        (None, 35, 35, 320)  41280       ['block35_7_mixed[0][0]']        
                                                                                                  
 block35_7 (Lambda)             (None, 35, 35, 320)  0           ['block35_6_ac[0][0]',           
                                                                  'block35_7_conv[0][0]']         
                                                                                                  
 block35_7_ac (Activation)      (None, 35, 35, 320)  0           ['block35_7[0][0]']              
                                                                                                  
 conv2d_57 (Conv2D)             (None, 35, 35, 32)   10240       ['block35_7_ac[0][0]']           
                                                                                                  
 batch_normalization_57 (BatchN  (None, 35, 35, 32)  96          ['conv2d_57[0][0]']              
 ormalization)                                                                                    
                                                                                                  
 activation_57 (Activation)     (None, 35, 35, 32)   0           ['batch_normalization_57[0][0]'] 
                                                                                                  
 conv2d_55 (Conv2D)             (None, 35, 35, 32)   10240       ['block35_7_ac[0][0]']           
                                                                                                  
 conv2d_58 (Conv2D)             (None, 35, 35, 48)   13824       ['activation_57[0][0]']          
                                                                                                  
 batch_normalization_55 (BatchN  (None, 35, 35, 32)  96          ['conv2d_55[0][0]']              
 ormalization)                                                                                    
                                                                                                  
 batch_normalization_58 (BatchN  (None, 35, 35, 48)  144         ['conv2d_58[0][0]']              
 ormalization)                                                                                    
                                                                                                  
 activation_55 (Activation)     (None, 35, 35, 32)   0           ['batch_normalization_55[0][0]'] 
                                                                                                  
 activation_58 (Activation)     (None, 35, 35, 48)   0           ['batch_normalization_58[0][0]'] 
                                                                                                  
 conv2d_54 (Conv2D)             (None, 35, 35, 32)   10240       ['block35_7_ac[0][0]']           
                                                                                                  
 conv2d_56 (Conv2D)             (None, 35, 35, 32)   9216        ['activation_55[0][0]']          
                                                                                                  
 conv2d_59 (Conv2D)             (None, 35, 35, 64)   27648       ['activation_58[0][0]']          
                                                                                                  
 batch_normalization_54 (BatchN  (None, 35, 35, 32)  96          ['conv2d_54[0][0]']              
 ormalization)                                                                                    
                                                                                                  
 batch_normalization_56 (BatchN  (None, 35, 35, 32)  96          ['conv2d_56[0][0]']              
 ormalization)                                                                                    
                                                                                                  
 batch_normalization_59 (BatchN  (None, 35, 35, 64)  192         ['conv2d_59[0][0]']              
 ormalization)                                                                                    
                                                                                                  
 activation_54 (Activation)     (None, 35, 35, 32)   0           ['batch_normalization_54[0][0]'] 
                                                                                                  
 activation_56 (Activation)     (None, 35, 35, 32)   0           ['batch_normalization_56[0][0]'] 
                                                                                                  
 activation_59 (Activation)     (None, 35, 35, 64)   0           ['batch_normalization_59[0][0]'] 
                                                                                                  
 block35_8_mixed (Concatenate)  (None, 35, 35, 128)  0           ['activation_54[0][0]',          
                                                                  'activation_56[0][0]',          
                                                                  'activation_59[0][0]']          
                                                                                                  
 block35_8_conv (Conv2D)        (None, 35, 35, 320)  41280       ['block35_8_mixed[0][0]']        
                                                                                                  
 block35_8 (Lambda)             (None, 35, 35, 320)  0           ['block35_7_ac[0][0]',           
                                                                  'block35_8_conv[0][0]']         
                                                                                                  
 block35_8_ac (Activation)      (None, 35, 35, 320)  0           ['block35_8[0][0]']              
                                                                                                  
 conv2d_63 (Conv2D)             (None, 35, 35, 32)   10240       ['block35_8_ac[0][0]']           
                                                                                                  
 batch_normalization_63 (BatchN  (None, 35, 35, 32)  96          ['conv2d_63[0][0]']              
 ormalization)                                                                                    
                                                                                                  
 activation_63 (Activation)     (None, 35, 35, 32)   0           ['batch_normalization_63[0][0]'] 
                                                                                                  
 conv2d_61 (Conv2D)             (None, 35, 35, 32)   10240       ['block35_8_ac[0][0]']           
                                                                                                  
 conv2d_64 (Conv2D)             (None, 35, 35, 48)   13824       ['activation_63[0][0]']          
                                                                                                  
 batch_normalization_61 (BatchN  (None, 35, 35, 32)  96          ['conv2d_61[0][0]']              
 ormalization)                                                                                    
                                                                                                  
 batch_normalization_64 (BatchN  (None, 35, 35, 48)  144         ['conv2d_64[0][0]']              
 ormalization)                                                                                    
                                                                                                  
 activation_61 (Activation)     (None, 35, 35, 32)   0           ['batch_normalization_61[0][0]'] 
                                                                                                  
 activation_64 (Activation)     (None, 35, 35, 48)   0           ['batch_normalization_64[0][0]'] 
                                                                                                  
 conv2d_60 (Conv2D)             (None, 35, 35, 32)   10240       ['block35_8_ac[0][0]']           
                                                                                                  
 conv2d_62 (Conv2D)             (None, 35, 35, 32)   9216        ['activation_61[0][0]']          
                                                                                                  
 conv2d_65 (Conv2D)             (None, 35, 35, 64)   27648       ['activation_64[0][0]']          
                                                                                                  
 batch_normalization_60 (BatchN  (None, 35, 35, 32)  96          ['conv2d_60[0][0]']              
 ormalization)                                                                                    
                                                                                                  
 batch_normalization_62 (BatchN  (None, 35, 35, 32)  96          ['conv2d_62[0][0]']              
 ormalization)                                                                                    
                                                                                                  
 batch_normalization_65 (BatchN  (None, 35, 35, 64)  192         ['conv2d_65[0][0]']              
 ormalization)                                                                                    
                                                                                                  
 activation_60 (Activation)     (None, 35, 35, 32)   0           ['batch_normalization_60[0][0]'] 
                                                                                                  
 activation_62 (Activation)     (None, 35, 35, 32)   0           ['batch_normalization_62[0][0]'] 
                                                                                                  
 activation_65 (Activation)     (None, 35, 35, 64)   0           ['batch_normalization_65[0][0]'] 
                                                                                                  
 block35_9_mixed (Concatenate)  (None, 35, 35, 128)  0           ['activation_60[0][0]',          
                                                                  'activation_62[0][0]',          
                                                                  'activation_65[0][0]']          
                                                                                                  
 block35_9_conv (Conv2D)        (None, 35, 35, 320)  41280       ['block35_9_mixed[0][0]']        
                                                                                                  
 block35_9 (Lambda)             (None, 35, 35, 320)  0           ['block35_8_ac[0][0]',           
                                                                  'block35_9_conv[0][0]']         
                                                                                                  
 block35_9_ac (Activation)      (None, 35, 35, 320)  0           ['block35_9[0][0]']              
                                                                                                  
 conv2d_69 (Conv2D)             (None, 35, 35, 32)   10240       ['block35_9_ac[0][0]']           
                                                                                                  
 batch_normalization_69 (BatchN  (None, 35, 35, 32)  96          ['conv2d_69[0][0]']              
 ormalization)                                                                                    
                                                                                                  
 activation_69 (Activation)     (None, 35, 35, 32)   0           ['batch_normalization_69[0][0]'] 
                                                                                                  
 conv2d_67 (Conv2D)             (None, 35, 35, 32)   10240       ['block35_9_ac[0][0]']           
                                                                                                  
 conv2d_70 (Conv2D)             (None, 35, 35, 48)   13824       ['activation_69[0][0]']          
                                                                                                  
 batch_normalization_67 (BatchN  (None, 35, 35, 32)  96          ['conv2d_67[0][0]']              
 ormalization)                                                                                    
                                                                                                  
 batch_normalization_70 (BatchN  (None, 35, 35, 48)  144         ['conv2d_70[0][0]']              
 ormalization)                                                                                    
                                                                                                  
 activation_67 (Activation)     (None, 35, 35, 32)   0           ['batch_normalization_67[0][0]'] 
                                                                                                  
 activation_70 (Activation)     (None, 35, 35, 48)   0           ['batch_normalization_70[0][0]'] 
                                                                                                  
 conv2d_66 (Conv2D)             (None, 35, 35, 32)   10240       ['block35_9_ac[0][0]']           
                                                                                                  
 conv2d_68 (Conv2D)             (None, 35, 35, 32)   9216        ['activation_67[0][0]']          
                                                                                                  
 conv2d_71 (Conv2D)             (None, 35, 35, 64)   27648       ['activation_70[0][0]']          
                                                                                                  
 batch_normalization_66 (BatchN  (None, 35, 35, 32)  96          ['conv2d_66[0][0]']              
 ormalization)                                                                                    
                                                                                                  
 batch_normalization_68 (BatchN  (None, 35, 35, 32)  96          ['conv2d_68[0][0]']              
 ormalization)                                                                                    
                                                                                                  
 batch_normalization_71 (BatchN  (None, 35, 35, 64)  192         ['conv2d_71[0][0]']              
 ormalization)                                                                                    
                                                                                                  
 activation_66 (Activation)     (None, 35, 35, 32)   0           ['batch_normalization_66[0][0]'] 
                                                                                                  
 activation_68 (Activation)     (None, 35, 35, 32)   0           ['batch_normalization_68[0][0]'] 
                                                                                                  
 activation_71 (Activation)     (None, 35, 35, 64)   0           ['batch_normalization_71[0][0]'] 
                                                                                                  
 block35_10_mixed (Concatenate)  (None, 35, 35, 128)  0          ['activation_66[0][0]',          
                                                                  'activation_68[0][0]',          
                                                                  'activation_71[0][0]']          
                                                                                                  
 block35_10_conv (Conv2D)       (None, 35, 35, 320)  41280       ['block35_10_mixed[0][0]']       
                                                                                                  
 block35_10 (Lambda)            (None, 35, 35, 320)  0           ['block35_9_ac[0][0]',           
                                                                  'block35_10_conv[0][0]']        
                                                                                                  
 block35_10_ac (Activation)     (None, 35, 35, 320)  0           ['block35_10[0][0]']             
                                                                                                  
 conv2d_73 (Conv2D)             (None, 35, 35, 256)  81920       ['block35_10_ac[0][0]']          
                                                                                                  
 batch_normalization_73 (BatchN  (None, 35, 35, 256)  768        ['conv2d_73[0][0]']              
 ormalization)                                                                                    
                                                                                                  
 activation_73 (Activation)     (None, 35, 35, 256)  0           ['batch_normalization_73[0][0]'] 
                                                                                                  
 conv2d_74 (Conv2D)             (None, 35, 35, 256)  589824      ['activation_73[0][0]']          
                                                                                                  
 batch_normalization_74 (BatchN  (None, 35, 35, 256)  768        ['conv2d_74[0][0]']              
 ormalization)                                                                                    
                                                                                                  
 activation_74 (Activation)     (None, 35, 35, 256)  0           ['batch_normalization_74[0][0]'] 
                                                                                                  
 conv2d_72 (Conv2D)             (None, 17, 17, 384)  1105920     ['block35_10_ac[0][0]']          
                                                                                                  
 conv2d_75 (Conv2D)             (None, 17, 17, 384)  884736      ['activation_74[0][0]']          
                                                                                                  
 batch_normalization_72 (BatchN  (None, 17, 17, 384)  1152       ['conv2d_72[0][0]']              
 ormalization)                                                                                    
                                                                                                  
 batch_normalization_75 (BatchN  (None, 17, 17, 384)  1152       ['conv2d_75[0][0]']              
 ormalization)                                                                                    
                                                                                                  
 activation_72 (Activation)     (None, 17, 17, 384)  0           ['batch_normalization_72[0][0]'] 
                                                                                                  
 activation_75 (Activation)     (None, 17, 17, 384)  0           ['batch_normalization_75[0][0]'] 
                                                                                                  
 max_pooling2d_2 (MaxPooling2D)  (None, 17, 17, 320)  0          ['block35_10_ac[0][0]']          
                                                                                                  
 mixed_6a (Concatenate)         (None, 17, 17, 1088  0           ['activation_72[0][0]',          
                                )                                 'activation_75[0][0]',          
                                                                  'max_pooling2d_2[0][0]']        
                                                                                                  
 conv2d_77 (Conv2D)             (None, 17, 17, 128)  139264      ['mixed_6a[0][0]']               
                                                                                                  
 batch_normalization_77 (BatchN  (None, 17, 17, 128)  384        ['conv2d_77[0][0]']              
 ormalization)                                                                                    
                                                                                                  
 activation_77 (Activation)     (None, 17, 17, 128)  0           ['batch_normalization_77[0][0]'] 
                                                                                                  
 conv2d_78 (Conv2D)             (None, 17, 17, 160)  143360      ['activation_77[0][0]']          
                                                                                                  
 batch_normalization_78 (BatchN  (None, 17, 17, 160)  480        ['conv2d_78[0][0]']              
 ormalization)                                                                                    
                                                                                                  
 activation_78 (Activation)     (None, 17, 17, 160)  0           ['batch_normalization_78[0][0]'] 
                                                                                                  
 conv2d_76 (Conv2D)             (None, 17, 17, 192)  208896      ['mixed_6a[0][0]']               
                                                                                                  
 conv2d_79 (Conv2D)             (None, 17, 17, 192)  215040      ['activation_78[0][0]']          
                                                                                                  
 batch_normalization_76 (BatchN  (None, 17, 17, 192)  576        ['conv2d_76[0][0]']              
 ormalization)                                                                                    
                                                                                                  
 batch_normalization_79 (BatchN  (None, 17, 17, 192)  576        ['conv2d_79[0][0]']              
 ormalization)                                                                                    
                                                                                                  
 activation_76 (Activation)     (None, 17, 17, 192)  0           ['batch_normalization_76[0][0]'] 
                                                                                                  
 activation_79 (Activation)     (None, 17, 17, 192)  0           ['batch_normalization_79[0][0]'] 
                                                                                                  
 block17_1_mixed (Concatenate)  (None, 17, 17, 384)  0           ['activation_76[0][0]',          
                                                                  'activation_79[0][0]']          
                                                                                                  
 block17_1_conv (Conv2D)        (None, 17, 17, 1088  418880      ['block17_1_mixed[0][0]']        
                                )                                                                 
…
 block17_1 (Lambda)             (None, 17, 17, 1088  0           ['mixed_6a[0][0]',               
                                )                                 'block17_1_conv[0][0]']         
                                                                                                  
 block17_1_ac (Activation)      (None, 17, 17, 1088  0           ['block17_1[0][0]']              
                                )                                                                 
                                                                                                  
 conv2d_81 (Conv2D)             (None, 17, 17, 128)  139264      ['block17_1_ac[0][0]']           
                                                                                                  
 batch_normalization_81 (BatchN  (None, 17, 17, 128)  384        ['conv2d_81[0][0]']              
 ormalization)                                                                                    
                                                                                                  
 activation_81 (Activation)     (None, 17, 17, 128)  0           ['batch_normalization_81[0][0]'] 
                                                                                                  
 conv2d_82 (Conv2D)             (None, 17, 17, 160)  143360      ['activation_81[0][0]']          
                                                                                                  
 batch_normalization_82 (BatchN  (None, 17, 17, 160)  480        ['conv2d_82[0][0]']              
 ormalization)                                                                                    
                                                                                                  
 activation_82 (Activation)     (None, 17, 17, 160)  0           ['batch_normalization_82[0][0]'] 
                                                                                                  
 conv2d_80 (Conv2D)             (None, 17, 17, 192)  208896      ['block17_1_ac[0][0]']           
                                                                                                  
 conv2d_83 (Conv2D)             (None, 17, 17, 192)  215040      ['activation_82[0][0]']          
                                                                                                  
 batch_normalization_80 (BatchN  (None, 17, 17, 192)  576        ['conv2d_80[0][0]']              
 ormalization)                                                                                    
                                                                                                  
 batch_normalization_83 (BatchN  (None, 17, 17, 192)  576        ['conv2d_83[0][0]']              
 ormalization)                                                                                    
                                                                                                  
 activation_80 (Activation)     (None, 17, 17, 192)  0           ['batch_normalization_80[0][0]'] 
                                                                                                  
 activation_83 (Activation)     (None, 17, 17, 192)  0           ['batch_normalization_83[0][0]'] 
                                                                                                  
 block17_2_mixed (Concatenate)  (None, 17, 17, 384)  0           ['activation_80[0][0]',          
                                                                  'activation_83[0][0]']          
                                                                                                  
 block17_2_conv (Conv2D)        (None, 17, 17, 1088  418880      ['block17_2_mixed[0][0]']        
                                )                                                                 
…
 block17_20 (Lambda)            (None, 17, 17, 1088  0           ['block17_19_ac[0][0]',          
                                )                                 'block17_20_conv[0][0]']        
                                                                                                  
 block17_20_ac (Activation)     (None, 17, 17, 1088  0           ['block17_20[0][0]']             
                                )                                                                 
                                                                                                  
 conv2d_160 (Conv2D)            (None, 17, 17, 256)  278528      ['block17_20_ac[0][0]']          
                                                                                                  
 batch_normalization_160 (Batch  (None, 17, 17, 256)  768        ['conv2d_160[0][0]']             
 Normalization)                                                                                   
                                                                                                  
 activation_160 (Activation)    (None, 17, 17, 256)  0           ['batch_normalization_160[0][0]']
                                                                                                  
 conv2d_156 (Conv2D)            (None, 17, 17, 256)  278528      ['block17_20_ac[0][0]']          
                                                                                                  
 conv2d_158 (Conv2D)            (None, 17, 17, 256)  278528      ['block17_20_ac[0][0]']          
                                                                                                  
 conv2d_161 (Conv2D)            (None, 17, 17, 288)  663552      ['activation_160[0][0]']         
                                                                                                  
 batch_normalization_156 (Batch  (None, 17, 17, 256)  768        ['conv2d_156[0][0]']             
 Normalization)                                                                                   
                                                                                                  
 batch_normalization_158 (Batch  (None, 17, 17, 256)  768        ['conv2d_158[0][0]']             
 Normalization)                                                                                   
                                                                                                  
 batch_normalization_161 (Batch  (None, 17, 17, 288)  864        ['conv2d_161[0][0]']             
 Normalization)                                                                                   
                                                                                                  
 activation_156 (Activation)    (None, 17, 17, 256)  0           ['batch_normalization_156[0][0]']
                                                                                                  
 activation_158 (Activation)    (None, 17, 17, 256)  0           ['batch_normalization_158[0][0]']
                                                                                                  
 activation_161 (Activation)    (None, 17, 17, 288)  0           ['batch_normalization_161[0][0]']
                                                                                                  
 conv2d_157 (Conv2D)            (None, 8, 8, 384)    884736      ['activation_156[0][0]']         
                                                                                                  
 conv2d_159 (Conv2D)            (None, 8, 8, 288)    663552      ['activation_158[0][0]']         
                                                                                                  
 conv2d_162 (Conv2D)            (None, 8, 8, 320)    829440      ['activation_161[0][0]']         
                                                                                                  
 batch_normalization_157 (Batch  (None, 8, 8, 384)   1152        ['conv2d_157[0][0]']             
 Normalization)                                                                                   
                                                                                                  
 batch_normalization_159 (Batch  (None, 8, 8, 288)   864         ['conv2d_159[0][0]']             
 Normalization)                                                                                   
                                                                                                  
 batch_normalization_162 (Batch  (None, 8, 8, 320)   960         ['conv2d_162[0][0]']             
 Normalization)                                                                                   
                                                                                                  
 activation_157 (Activation)    (None, 8, 8, 384)    0           ['batch_normalization_157[0][0]']
                                                                                                  
 activation_159 (Activation)    (None, 8, 8, 288)    0           ['batch_normalization_159[0][0]']
                                                                                                  
 activation_162 (Activation)    (None, 8, 8, 320)    0           ['batch_normalization_162[0][0]']
                                                                                                  
 max_pooling2d_3 (MaxPooling2D)  (None, 8, 8, 1088)  0           ['block17_20_ac[0][0]']          
                                                                                                  
 mixed_7a (Concatenate)         (None, 8, 8, 2080)   0           ['activation_157[0][0]',         
                                                                  'activation_159[0][0]',         
                                                                  'activation_162[0][0]',         
                                                                  'max_pooling2d_3[0][0]']        
                                                                                                  
 conv2d_164 (Conv2D)            (None, 8, 8, 192)    399360      ['mixed_7a[0][0]']               
                                                                                                  
 batch_normalization_164 (Batch  (None, 8, 8, 192)   576         ['conv2d_164[0][0]']             
 Normalization)                                                                                   
                                                                                                  
 activation_164 (Activation)    (None, 8, 8, 192)    0           ['batch_normalization_164[0][0]']
                                                                                                  
 conv2d_165 (Conv2D)            (None, 8, 8, 224)    129024      ['activation_164[0][0]']         
                                                                                                  
 batch_normalization_165 (Batch  (None, 8, 8, 224)   672         ['conv2d_165[0][0]']             
 Normalization)                                                                                   
                                                                                                  
 activation_165 (Activation)    (None, 8, 8, 224)    0           ['batch_normalization_165[0][0]']
                                                                                                  
 conv2d_163 (Conv2D)            (None, 8, 8, 192)    399360      ['mixed_7a[0][0]']               
                                                                                                  
 conv2d_166 (Conv2D)            (None, 8, 8, 256)    172032      ['activation_165[0][0]']         
                                                                                                  
 batch_normalization_163 (Batch  (None, 8, 8, 192)   576         ['conv2d_163[0][0]']             
 Normalization)                                                                                   
                                                                                                  
 batch_normalization_166 (Batch  (None, 8, 8, 256)   768         ['conv2d_166[0][0]']             
 Normalization)                                                                                   
                                                                                                  
 activation_163 (Activation)    (None, 8, 8, 192)    0           ['batch_normalization_163[0][0]']
                                                                                                  
 activation_166 (Activation)    (None, 8, 8, 256)    0           ['batch_normalization_166[0][0]']
                                                                                                  
 block8_1_mixed (Concatenate)   (None, 8, 8, 448)    0           ['activation_163[0][0]',         
                                                                  'activation_166[0][0]']         
                                                                                                  
 block8_1_conv (Conv2D)         (None, 8, 8, 2080)   933920      ['block8_1_mixed[0][0]']         
                                                                                                  
 block8_1 (Lambda)              (None, 8, 8, 2080)   0           ['mixed_7a[0][0]',               
                                                                  'block8_1_conv[0][0]']          
                                                                                                  
 block8_1_ac (Activation)       (None, 8, 8, 2080)   0           ['block8_1[0][0]']               
                                                                                                  
 conv2d_168 (Conv2D)            (None, 8, 8, 192)    399360      ['block8_1_ac[0][0]']            
                                                                                                  
 batch_normalization_168 (Batch  (None, 8, 8, 192)   576         ['conv2d_168[0][0]']             
 Normalization)                                                                                   
                                                                                                  
 activation_168 (Activation)    (None, 8, 8, 192)    0           ['batch_normalization_168[0][0]']
                                                                                                  
 conv2d_169 (Conv2D)            (None, 8, 8, 224)    129024      ['activation_168[0][0]']         
                                                                                                  
 batch_normalization_169 (Batch  (None, 8, 8, 224)   672         ['conv2d_169[0][0]']             
 Normalization)                                                                                   
                                                                                                  
 activation_169 (Activation)    (None, 8, 8, 224)    0           ['batch_normalization_169[0][0]']
                                                                                                  
 conv2d_167 (Conv2D)            (None, 8, 8, 192)    399360      ['block8_1_ac[0][0]']            
                                                                                                  
 conv2d_170 (Conv2D)            (None, 8, 8, 256)    172032      ['activation_169[0][0]']         
                                                                                                  
 batch_normalization_167 (Batch  (None, 8, 8, 192)   576         ['conv2d_167[0][0]']             
 Normalization)                                                                                   
                                                                                                  
 batch_normalization_170 (Batch  (None, 8, 8, 256)   768         ['conv2d_170[0][0]']             
 Normalization)                                                                                   
                                                                                                  
 activation_167 (Activation)    (None, 8, 8, 192)    0           ['batch_normalization_167[0][0]']
                                                                                                  
 activation_170 (Activation)    (None, 8, 8, 256)    0           ['batch_normalization_170[0][0]']
                                                                                                  
 block8_2_mixed (Concatenate)   (None, 8, 8, 448)    0           ['activation_167[0][0]',         
                                                                  'activation_170[0][0]']         
                                                                                                  
 block8_2_conv (Conv2D)         (None, 8, 8, 2080)   933920      ['block8_2_mixed[0][0]']         
                                                                                                  
 block8_2 (Lambda)              (None, 8, 8, 2080)   0           ['block8_1_ac[0][0]',            
                                                                  'block8_2_conv[0][0]']          
                                                                                                  
 block8_2_ac (Activation)       (None, 8, 8, 2080)   0           ['block8_2[0][0]']               
                                                                                                  
 conv2d_172 (Conv2D)            (None, 8, 8, 192)    399360      ['block8_2_ac[0][0]']            
                                                                                                  
 batch_normalization_172 (Batch  (None, 8, 8, 192)   576         ['conv2d_172[0][0]']             
 Normalization)                                                                                   
                                                                                                  
 activation_172 (Activation)    (None, 8, 8, 192)    0           ['batch_normalization_172[0][0]']
                                                                                                  
 conv2d_173 (Conv2D)            (None, 8, 8, 224)    129024      ['activation_172[0][0]']         
                                                                                                  
 batch_normalization_173 (Batch  (None, 8, 8, 224)   672         ['conv2d_173[0][0]']             
 Normalization)                                                                                   
                                                                                                  
 activation_173 (Activation)    (None, 8, 8, 224)    0           ['batch_normalization_173[0][0]']
                                                                                                  
 conv2d_171 (Conv2D)            (None, 8, 8, 192)    399360      ['block8_2_ac[0][0]']            
                                                                                                  
 conv2d_174 (Conv2D)            (None, 8, 8, 256)    172032      ['activation_173[0][0]']         
                                                                                                  
 batch_normalization_171 (Batch  (None, 8, 8, 192)   576         ['conv2d_171[0][0]']             
 Normalization)                                                                                   
                                                                                                  
 batch_normalization_174 (Batch  (None, 8, 8, 256)   768         ['conv2d_174[0][0]']             
 Normalization)                                                                                   
                                                                                                  
 activation_171 (Activation)    (None, 8, 8, 192)    0           ['batch_normalization_171[0][0]']
                                                                                                  
 activation_174 (Activation)    (None, 8, 8, 256)    0           ['batch_normalization_174[0][0]']
                                                                                                  
 block8_3_mixed (Concatenate)   (None, 8, 8, 448)    0           ['activation_171[0][0]',         
                                                                  'activation_174[0][0]']         
                                                                                                  
 block8_3_conv (Conv2D)         (None, 8, 8, 2080)   933920      ['block8_3_mixed[0][0]']         
                                                                                                  
 block8_3 (Lambda)              (None, 8, 8, 2080)   0           ['block8_2_ac[0][0]',            
                                                                  'block8_3_conv[0][0]']          
                                                                                                  
 block8_3_ac (Activation)       (None, 8, 8, 2080)   0           ['block8_3[0][0]']               
                                                                                                  
 conv2d_176 (Conv2D)            (None, 8, 8, 192)    399360      ['block8_3_ac[0][0]']            
                                                                                                  
 batch_normalization_176 (Batch  (None, 8, 8, 192)   576         ['conv2d_176[0][0]']             
 Normalization)                                                                                   
                                                                                                  
 activation_176 (Activation)    (None, 8, 8, 192)    0           ['batch_normalization_176[0][0]']
                                                                                                  
 conv2d_177 (Conv2D)            (None, 8, 8, 224)    129024      ['activation_176[0][0]']         
                                                                                                  
 batch_normalization_177 (Batch  (None, 8, 8, 224)   672         ['conv2d_177[0][0]']             
 Normalization)                                                                                   
                                                                                                  
 activation_177 (Activation)    (None, 8, 8, 224)    0           ['batch_normalization_177[0][0]']
                                                                                                  
 conv2d_175 (Conv2D)            (None, 8, 8, 192)    399360      ['block8_3_ac[0][0]']            
                                                                                                  
 conv2d_178 (Conv2D)            (None, 8, 8, 256)    172032      ['activation_177[0][0]']         
                                                                                                  
 batch_normalization_175 (Batch  (None, 8, 8, 192)   576         ['conv2d_175[0][0]']             
 Normalization)                                                                                   
                                                                                                  
 batch_normalization_178 (Batch  (None, 8, 8, 256)   768         ['conv2d_178[0][0]']             
 Normalization)                                                                                   
                                                                                                  
 activation_175 (Activation)    (None, 8, 8, 192)    0           ['batch_normalization_175[0][0]']
                                                                                                  
 activation_178 (Activation)    (None, 8, 8, 256)    0           ['batch_normalization_178[0][0]']
                                                                                                  
 block8_4_mixed (Concatenate)   (None, 8, 8, 448)    0           ['activation_175[0][0]',         
                                                                  'activation_178[0][0]']         
                                                                                                  
 block8_4_conv (Conv2D)         (None, 8, 8, 2080)   933920      ['block8_4_mixed[0][0]']         
                                                                                                  
 block8_4 (Lambda)              (None, 8, 8, 2080)   0           ['block8_3_ac[0][0]',            
                                                                  'block8_4_conv[0][0]']          
                                                                                                  
 block8_4_ac (Activation)       (None, 8, 8, 2080)   0           ['block8_4[0][0]']               
                                                                                                  
 conv2d_180 (Conv2D)            (None, 8, 8, 192)    399360      ['block8_4_ac[0][0]']            
                                                                                                  
 batch_normalization_180 (Batch  (None, 8, 8, 192)   576         ['conv2d_180[0][0]']             
 Normalization)                                                                                   
                                                                                                  
 activation_180 (Activation)    (None, 8, 8, 192)    0           ['batch_normalization_180[0][0]']
                                                                                                  
 conv2d_181 (Conv2D)            (None, 8, 8, 224)    129024      ['activation_180[0][0]']         
                                                                                                  
 batch_normalization_181 (Batch  (None, 8, 8, 224)   672         ['conv2d_181[0][0]']             
 Normalization)                                                                                   
                                                                                                  
 activation_181 (Activation)    (None, 8, 8, 224)    0           ['batch_normalization_181[0][0]']
                                                                                                  
 conv2d_179 (Conv2D)            (None, 8, 8, 192)    399360      ['block8_4_ac[0][0]']            
                                                                                                  
 conv2d_182 (Conv2D)            (None, 8, 8, 256)    172032      ['activation_181[0][0]']         
                                                                                                  
 batch_normalization_179 (Batch  (None, 8, 8, 192)   576         ['conv2d_179[0][0]']             
 Normalization)                                                                                   
                                                                                                  
 batch_normalization_182 (Batch  (None, 8, 8, 256)   768         ['conv2d_182[0][0]']             
 Normalization)                                                                                   
                                                                                                  
 activation_179 (Activation)    (None, 8, 8, 192)    0           ['batch_normalization_179[0][0]']
                                                                                                  
 activation_182 (Activation)    (None, 8, 8, 256)    0           ['batch_normalization_182[0][0]']
                                                                                                  
 block8_5_mixed (Concatenate)   (None, 8, 8, 448)    0           ['activation_179[0][0]',         
                                                                  'activation_182[0][0]']         
                                                                                                  
 block8_5_conv (Conv2D)         (None, 8, 8, 2080)   933920      ['block8_5_mixed[0][0]']         
                                                                                                  
 block8_5 (Lambda)              (None, 8, 8, 2080)   0           ['block8_4_ac[0][0]',            
                                                                  'block8_5_conv[0][0]']          
                                                                                                  
 block8_5_ac (Activation)       (None, 8, 8, 2080)   0           ['block8_5[0][0]']               
                                                                                                  
 conv2d_184 (Conv2D)            (None, 8, 8, 192)    399360      ['block8_5_ac[0][0]']            
                                                                                                  
 batch_normalization_184 (Batch  (None, 8, 8, 192)   576         ['conv2d_184[0][0]']             
 Normalization)                                                                                   
                                                                                                  
 activation_184 (Activation)    (None, 8, 8, 192)    0           ['batch_normalization_184[0][0]']
                                                                                                  
 conv2d_185 (Conv2D)            (None, 8, 8, 224)    129024      ['activation_184[0][0]']         
                                                                                                  
 batch_normalization_185 (Batch  (None, 8, 8, 224)   672         ['conv2d_185[0][0]']             
 Normalization)                                                                                   
                                                                                                  
 activation_185 (Activation)    (None, 8, 8, 224)    0           ['batch_normalization_185[0][0]']
                                                                                                  
 conv2d_183 (Conv2D)            (None, 8, 8, 192)    399360      ['block8_5_ac[0][0]']            
                                                                                                  
 conv2d_186 (Conv2D)            (None, 8, 8, 256)    172032      ['activation_185[0][0]']         
                                                                                                  
 batch_normalization_183 (Batch  (None, 8, 8, 192)   576         ['conv2d_183[0][0]']             
 Normalization)                                                                                   
                                                                                                  
 batch_normalization_186 (Batch  (None, 8, 8, 256)   768         ['conv2d_186[0][0]']             
 Normalization)                                                                                   
                                                                                                  
 activation_183 (Activation)    (None, 8, 8, 192)    0           ['batch_normalization_183[0][0]']
                                                                                                  
 activation_186 (Activation)    (None, 8, 8, 256)    0           ['batch_normalization_186[0][0]']
                                                                                                  
 block8_6_mixed (Concatenate)   (None, 8, 8, 448)    0           ['activation_183[0][0]',         
                                                                  'activation_186[0][0]']         
                                                                                                  
 block8_6_conv (Conv2D)         (None, 8, 8, 2080)   933920      ['block8_6_mixed[0][0]']         
                                                                                                  
 block8_6 (Lambda)              (None, 8, 8, 2080)   0           ['block8_5_ac[0][0]',            
                                                                  'block8_6_conv[0][0]']          
                                                                                                  
 block8_6_ac (Activation)       (None, 8, 8, 2080)   0           ['block8_6[0][0]']               
                                                                                                  
 conv2d_188 (Conv2D)            (None, 8, 8, 192)    399360      ['block8_6_ac[0][0]']            
                                                                                                  
 batch_normalization_188 (Batch  (None, 8, 8, 192)   576         ['conv2d_188[0][0]']             
 Normalization)                                                                                   
                                                                                                  
 activation_188 (Activation)    (None, 8, 8, 192)    0           ['batch_normalization_188[0][0]']
                                                                                                  
 conv2d_189 (Conv2D)            (None, 8, 8, 224)    129024      ['activation_188[0][0]']         
                                                                                                  
 batch_normalization_189 (Batch  (None, 8, 8, 224)   672         ['conv2d_189[0][0]']             
 Normalization)                                                                                   
                                                                                                  
 activation_189 (Activation)    (None, 8, 8, 224)    0           ['batch_normalization_189[0][0]']
                                                                                                  
 conv2d_187 (Conv2D)            (None, 8, 8, 192)    399360      ['block8_6_ac[0][0]']            
                                                                                                  
 conv2d_190 (Conv2D)            (None, 8, 8, 256)    172032      ['activation_189[0][0]']         
                                                                                                  
 batch_normalization_187 (Batch  (None, 8, 8, 192)   576         ['conv2d_187[0][0]']             
 Normalization)                                                                                   
                                                                                                  
 batch_normalization_190 (Batch  (None, 8, 8, 256)   768         ['conv2d_190[0][0]']             
 Normalization)                                                                                   
                                                                                                  
 activation_187 (Activation)    (None, 8, 8, 192)    0           ['batch_normalization_187[0][0]']
                                                                                                  
 activation_190 (Activation)    (None, 8, 8, 256)    0           ['batch_normalization_190[0][0]']
                                                                                                  
 block8_7_mixed (Concatenate)   (None, 8, 8, 448)    0           ['activation_187[0][0]',         
                                                                  'activation_190[0][0]']         
                                                                                                  
 block8_7_conv (Conv2D)         (None, 8, 8, 2080)   933920      ['block8_7_mixed[0][0]']         
                                                                                                  
 block8_7 (Lambda)              (None, 8, 8, 2080)   0           ['block8_6_ac[0][0]',            
                                                                  'block8_7_conv[0][0]']          
                                                                                                  
 block8_7_ac (Activation)       (None, 8, 8, 2080)   0           ['block8_7[0][0]']               
                                                                                                  
 conv2d_192 (Conv2D)            (None, 8, 8, 192)    399360      ['block8_7_ac[0][0]']            
                                                                                                  
 batch_normalization_192 (Batch  (None, 8, 8, 192)   576         ['conv2d_192[0][0]']             
 Normalization)                                                                                   
                                                                                                  
 activation_192 (Activation)    (None, 8, 8, 192)    0           ['batch_normalization_192[0][0]']
                                                                                                  
 conv2d_193 (Conv2D)            (None, 8, 8, 224)    129024      ['activation_192[0][0]']         
                                                                                                  
 batch_normalization_193 (Batch  (None, 8, 8, 224)   672         ['conv2d_193[0][0]']             
 Normalization)                                                                                   
                                                                                                  
 activation_193 (Activation)    (None, 8, 8, 224)    0           ['batch_normalization_193[0][0]']
                                                                                                  
 conv2d_191 (Conv2D)            (None, 8, 8, 192)    399360      ['block8_7_ac[0][0]']            
                                                                                                  
 conv2d_194 (Conv2D)            (None, 8, 8, 256)    172032      ['activation_193[0][0]']         
                                                                                                  
 batch_normalization_191 (Batch  (None, 8, 8, 192)   576         ['conv2d_191[0][0]']             
 Normalization)                                                                                   
                                                                                                  
 batch_normalization_194 (Batch  (None, 8, 8, 256)   768         ['conv2d_194[0][0]']             
 Normalization)                                                                                   
                                                                                                  
 activation_191 (Activation)    (None, 8, 8, 192)    0           ['batch_normalization_191[0][0]']
                                                                                                  
 activation_194 (Activation)    (None, 8, 8, 256)    0           ['batch_normalization_194[0][0]']
                                                                                                  
 block8_8_mixed (Concatenate)   (None, 8, 8, 448)    0           ['activation_191[0][0]',         
                                                                  'activation_194[0][0]']         
                                                                                                  
 block8_8_conv (Conv2D)         (None, 8, 8, 2080)   933920      ['block8_8_mixed[0][0]']         
                                                                                                  
 block8_8 (Lambda)              (None, 8, 8, 2080)   0           ['block8_7_ac[0][0]',            
                                                                  'block8_8_conv[0][0]']          
                                                                                                  
 block8_8_ac (Activation)       (None, 8, 8, 2080)   0           ['block8_8[0][0]']               
                                                                                                  
 conv2d_196 (Conv2D)            (None, 8, 8, 192)    399360      ['block8_8_ac[0][0]']            
                                                                                                  
 batch_normalization_196 (Batch  (None, 8, 8, 192)   576         ['conv2d_196[0][0]']             
 Normalization)                                                                                   
                                                                                                  
 activation_196 (Activation)    (None, 8, 8, 192)    0           ['batch_normalization_196[0][0]']
                                                                                                  
 conv2d_197 (Conv2D)            (None, 8, 8, 224)    129024      ['activation_196[0][0]']         
                                                                                                  
 batch_normalization_197 (Batch  (None, 8, 8, 224)   672         ['conv2d_197[0][0]']             
 Normalization)                                                                                   
                                                                                                  
 activation_197 (Activation)    (None, 8, 8, 224)    0           ['batch_normalization_197[0][0]']
                                                                                                  
 conv2d_195 (Conv2D)            (None, 8, 8, 192)    399360      ['block8_8_ac[0][0]']            
                                                                                                  
 conv2d_198 (Conv2D)            (None, 8, 8, 256)    172032      ['activation_197[0][0]']         
                                                                                                  
 batch_normalization_195 (Batch  (None, 8, 8, 192)   576         ['conv2d_195[0][0]']             
 Normalization)                                                                                   
                                                                                                  
 batch_normalization_198 (Batch  (None, 8, 8, 256)   768         ['conv2d_198[0][0]']             
 Normalization)                                                                                   
                                                                                                  
 activation_195 (Activation)    (None, 8, 8, 192)    0           ['batch_normalization_195[0][0]']
                                                                                                  
 activation_198 (Activation)    (None, 8, 8, 256)    0           ['batch_normalization_198[0][0]']
                                                                                                  
 block8_9_mixed (Concatenate)   (None, 8, 8, 448)    0           ['activation_195[0][0]',         
                                                                  'activation_198[0][0]']         
                                                                                                  
 block8_9_conv (Conv2D)         (None, 8, 8, 2080)   933920      ['block8_9_mixed[0][0]']         
                                                                                                  
 block8_9 (Lambda)              (None, 8, 8, 2080)   0           ['block8_8_ac[0][0]',            
                                                                  'block8_9_conv[0][0]']          
                                                                                                  
 block8_9_ac (Activation)       (None, 8, 8, 2080)   0           ['block8_9[0][0]']               
                                                                                                  
 conv2d_200 (Conv2D)            (None, 8, 8, 192)    399360      ['block8_9_ac[0][0]']            
                                                                                                  
 batch_normalization_200 (Batch  (None, 8, 8, 192)   576         ['conv2d_200[0][0]']             
 Normalization)                                                                                   
                                                                                                  
 activation_200 (Activation)    (None, 8, 8, 192)    0           ['batch_normalization_200[0][0]']
                                                                                                  
 conv2d_201 (Conv2D)            (None, 8, 8, 224)    129024      ['activation_200[0][0]']         
                                                                                                  
 batch_normalization_201 (Batch  (None, 8, 8, 224)   672         ['conv2d_201[0][0]']             
 Normalization)                                                                                   
                                                                                                  
 activation_201 (Activation)    (None, 8, 8, 224)    0           ['batch_normalization_201[0][0]']
                                                                                                  
 conv2d_199 (Conv2D)            (None, 8, 8, 192)    399360      ['block8_9_ac[0][0]']            
                                                                                                  
 conv2d_202 (Conv2D)            (None, 8, 8, 256)    172032      ['activation_201[0][0]']         
                                                                                                  
 batch_normalization_199 (Batch  (None, 8, 8, 192)   576         ['conv2d_199[0][0]']             
 Normalization)                                                                                   
                                                                                                  
 batch_normalization_202 (Batch  (None, 8, 8, 256)   768         ['conv2d_202[0][0]']             
 Normalization)                                                                                   
                                                                                                  
 activation_199 (Activation)    (None, 8, 8, 192)    0           ['batch_normalization_199[0][0]']
                                                                                                  
 activation_202 (Activation)    (None, 8, 8, 256)    0           ['batch_normalization_202[0][0]']
                                                                                                  
 block8_10_mixed (Concatenate)  (None, 8, 8, 448)    0           ['activation_199[0][0]',         
                                                                  'activation_202[0][0]']         
                                                                                                  
 block8_10_conv (Conv2D)        (None, 8, 8, 2080)   933920      ['block8_10_mixed[0][0]']        
                                                                                                  
 block8_10 (Lambda)             (None, 8, 8, 2080)   0           ['block8_9_ac[0][0]',            
                                                                  'block8_10_conv[0][0]']         
                                                                                                  
 conv_7b (Conv2D)               (None, 8, 8, 1536)   3194880     ['block8_10[0][0]']              
                                                                                                  
 conv_7b_bn (BatchNormalization  (None, 8, 8, 1536)  4608        ['conv_7b[0][0]']                
 )                                                                                                
                                                                                                  
 conv_7b_ac (Activation)        (None, 8, 8, 1536)   0           ['conv_7b_bn[0][0]']             
                                                                                                  
 global_average_pooling2d (Glob  (None, 1536)        0           ['conv_7b_ac[0][0]']             
 alAveragePooling2D)                                                                              
                                                                                                  
 dropout (Dropout)              (None, 1536)         0           ['global_average_pooling2d[0][0]'
                                                                 ]                                
                                                                                                  
 dense (Dense)                  (None, 2048)         3147776     ['dropout[0][0]']                
                                                                                                  
 dropout_1 (Dropout)            (None, 2048)         0           ['dense[0][0]']                  
                                                                                                  
 dense_1 (Dense)                (None, 2)            4098        ['dropout_1[0][0]']              
                                                                                                  
==================================================================================================
Total params: 57,488,610
Trainable params: 57,428,066
Non-trainable params: 60,544
__________________________________________________________________________________________________
