…
 Transformer/encoderblock_9   ((None, 197, 768),       7087872   
 (TransformerBlock)           (None, 12, None, None))            
                                                                 
 Transformer/encoderblock_10  ((None, 197, 768),       7087872   
  (TransformerBlock)          (None, 12, None, None))            
                                                                 
 Transformer/encoderblock_11  ((None, 197, 768),       7087872   
  (TransformerBlock)          (None, 12, None, None))            
                                                                 
 Transformer/encoder_norm (L  (None, 197, 768)         1536      
 ayerNormalization)                                              
                                                                 
 ExtractToken (Lambda)       (None, 768)               0         
                                                                 
 flatten (Flatten)           (None, 768)               0         
                                                                 
 batch_normalization (BatchN  (None, 768)              3072      
 ormalization)                                                   
                                                                 
 dense (Dense)               (None, 2048)              1574912   
                                                                 
 dropout (Dropout)           (None, 2048)              0         
                                                                 
 dense_1 (Dense)             (None, 2)                 4098      
                                                                 
=================================================================
Total params: 87,380,738
Trainable params: 87,379,202
Non-trainable params: 1,536
_________________________________________________________________
