…
 block1a_project_bn (BatchNorma  (None, 112, 112, 16  64         ['block1a_project_conv[0][0]']   
 lization)                      )                                                                 
                                                                                                  
 block1a_project_activation (Ac  (None, 112, 112, 16  0          ['block1a_project_bn[0][0]']     
 tivation)                      )                                                                 
                                                                                                  
 block2a_expand_conv (Conv2D)   (None, 56, 56, 64)   9216        ['block1a_project_activation[0][0
                                                                 ]']                              
                                                                                                  
 block2a_expand_bn (BatchNormal  (None, 56, 56, 64)  256         ['block2a_expand_conv[0][0]']    
 ization)                                                                                         
                                                                                                  
 block2a_expand_activation (Act  (None, 56, 56, 64)  0           ['block2a_expand_bn[0][0]']      
 ivation)                                                                                         
                                                                                                  
 block2a_project_conv (Conv2D)  (None, 56, 56, 32)   2048        ['block2a_expand_activation[0][0]
                                                                 ']                               
                                                                                                  
 block2a_project_bn (BatchNorma  (None, 56, 56, 32)  128         ['block2a_project_conv[0][0]']   
 lization)                                                                                        
                                                                                                  
 block2b_expand_conv (Conv2D)   (None, 56, 56, 128)  36864       ['block2a_project_bn[0][0]']     
                                                                                                  
 block2b_expand_bn (BatchNormal  (None, 56, 56, 128)  512        ['block2b_expand_conv[0][0]']    
 ization)                                                                                         
                                                                                                  
 block2b_expand_activation (Act  (None, 56, 56, 128)  0          ['block2b_expand_bn[0][0]']      
 ivation)                                                                                         
                                                                                                  
 block2b_project_conv (Conv2D)  (None, 56, 56, 32)   4096        ['block2b_expand_activation[0][0]
                                                                 ']                               
                                                                                                  
 block2b_project_bn (BatchNorma  (None, 56, 56, 32)  128         ['block2b_project_conv[0][0]']   
 lization)                                                                                        
                                                                                                  
 block2b_drop (Dropout)         (None, 56, 56, 32)   0           ['block2b_project_bn[0][0]']     
                                                                                                  
 block2b_add (Add)              (None, 56, 56, 32)   0           ['block2b_drop[0][0]',           
                                                                  'block2a_project_bn[0][0]']     
                                                                                                  
 block3a_expand_conv (Conv2D)   (None, 28, 28, 128)  36864       ['block2b_add[0][0]']            
                                                                                                  
 block3a_expand_bn (BatchNormal  (None, 28, 28, 128)  512        ['block3a_expand_conv[0][0]']    
 ization)                                                                                         
                                                                                                  
 block3a_expand_activation (Act  (None, 28, 28, 128)  0          ['block3a_expand_bn[0][0]']      
 ivation)                                                                                         
                                                                                                  
 block3a_project_conv (Conv2D)  (None, 28, 28, 48)   6144        ['block3a_expand_activation[0][0]
                                                                 ']                               
                                                                                                  
 block3a_project_bn (BatchNorma  (None, 28, 28, 48)  192         ['block3a_project_conv[0][0]']   
 lization)                                                                                        
                                                                                                  
 block3b_expand_conv (Conv2D)   (None, 28, 28, 192)  82944       ['block3a_project_bn[0][0]']     
                                                                                                  
 block3b_expand_bn (BatchNormal  (None, 28, 28, 192)  768        ['block3b_expand_conv[0][0]']    
 ization)                                                                                         
                                                                                                  
 block3b_expand_activation (Act  (None, 28, 28, 192)  0          ['block3b_expand_bn[0][0]']      
 ivation)                                                                                         
                                                                                                  
 block3b_project_conv (Conv2D)  (None, 28, 28, 48)   9216        ['block3b_expand_activation[0][0]
                                                                 ']                               
                                                                                                  
 block3b_project_bn (BatchNorma  (None, 28, 28, 48)  192         ['block3b_project_conv[0][0]']   
 lization)                                                                                        
                                                                                                  
 block3b_drop (Dropout)         (None, 28, 28, 48)   0           ['block3b_project_bn[0][0]']     
                                                                                                  
 block3b_add (Add)              (None, 28, 28, 48)   0           ['block3b_drop[0][0]',           
                                                                  'block3a_project_bn[0][0]']     
                                                                                                  
 block4a_expand_conv (Conv2D)   (None, 28, 28, 192)  9216        ['block3b_add[0][0]']            
                                                                                                  
 block4a_expand_bn (BatchNormal  (None, 28, 28, 192)  768        ['block4a_expand_conv[0][0]']    
 ization)                                                                                         
                                                                                                  
 block4a_expand_activation (Act  (None, 28, 28, 192)  0          ['block4a_expand_bn[0][0]']      
 ivation)                                                                                         
                                                                                                  
 block4a_dwconv2 (DepthwiseConv  (None, 14, 14, 192)  1728       ['block4a_expand_activation[0][0]
 2D)                                                             ']                               
                                                                                                  
 block4a_bn (BatchNormalization  (None, 14, 14, 192)  768        ['block4a_dwconv2[0][0]']        
 )                                                                                                
                                                                                                  
 block4a_activation (Activation  (None, 14, 14, 192)  0          ['block4a_bn[0][0]']             
 )                                                                                                
                                                                                                  
 block4a_se_squeeze (GlobalAver  (None, 192)         0           ['block4a_activation[0][0]']     
 agePooling2D)                                                                                    
                                                                                                  
 block4a_se_reshape (Reshape)   (None, 1, 1, 192)    0           ['block4a_se_squeeze[0][0]']     
                                                                                                  
 block4a_se_reduce (Conv2D)     (None, 1, 1, 12)     2316        ['block4a_se_reshape[0][0]']     
                                                                                                  
 block4a_se_expand (Conv2D)     (None, 1, 1, 192)    2496        ['block4a_se_reduce[0][0]']      
                                                                                                  
 block4a_se_excite (Multiply)   (None, 14, 14, 192)  0           ['block4a_activation[0][0]',     
                                                                  'block4a_se_expand[0][0]']      
                                                                                                  
 block4a_project_conv (Conv2D)  (None, 14, 14, 96)   18432       ['block4a_se_excite[0][0]']      
                                                                                                  
 block4a_project_bn (BatchNorma  (None, 14, 14, 96)  384         ['block4a_project_conv[0][0]']   
 lization)                                                                                        
                                                                                                  
 block4b_expand_conv (Conv2D)   (None, 14, 14, 384)  36864       ['block4a_project_bn[0][0]']     
                                                                                                  
 block4b_expand_bn (BatchNormal  (None, 14, 14, 384)  1536       ['block4b_expand_conv[0][0]']    
 ization)                                                                                         
                                                                                                  
 block4b_expand_activation (Act  (None, 14, 14, 384)  0          ['block4b_expand_bn[0][0]']      
 ivation)                                                                                         
                                                                                                  
 block4b_dwconv2 (DepthwiseConv  (None, 14, 14, 384)  3456       ['block4b_expand_activation[0][0]
 2D)                                                             ']                               
                                                                                                  
 block4b_bn (BatchNormalization  (None, 14, 14, 384)  1536       ['block4b_dwconv2[0][0]']        
 )                                                                                                
                                                                                                  
 block4b_activation (Activation  (None, 14, 14, 384)  0          ['block4b_bn[0][0]']             
 )                                                                                                
                                                                                                  
 block4b_se_squeeze (GlobalAver  (None, 384)         0           ['block4b_activation[0][0]']     
 agePooling2D)                                                                                    
                                                                                                  
 block4b_se_reshape (Reshape)   (None, 1, 1, 384)    0           ['block4b_se_squeeze[0][0]']     
                                                                                                  
 block4b_se_reduce (Conv2D)     (None, 1, 1, 24)     9240        ['block4b_se_reshape[0][0]']     
                                                                                                  
 block4b_se_expand (Conv2D)     (None, 1, 1, 384)    9600        ['block4b_se_reduce[0][0]']      
                                                                                                  
 block4b_se_excite (Multiply)   (None, 14, 14, 384)  0           ['block4b_activation[0][0]',     
                                                                  'block4b_se_expand[0][0]']      
                                                                                                  
 block4b_project_conv (Conv2D)  (None, 14, 14, 96)   36864       ['block4b_se_excite[0][0]']      
                                                                                                  
 block4b_project_bn (BatchNorma  (None, 14, 14, 96)  384         ['block4b_project_conv[0][0]']   
 lization)                                                                                        
                                                                                                  
 block4b_drop (Dropout)         (None, 14, 14, 96)   0           ['block4b_project_bn[0][0]']     
                                                                                                  
 block4b_add (Add)              (None, 14, 14, 96)   0           ['block4b_drop[0][0]',           
                                                                  'block4a_project_bn[0][0]']     
                                                                                                  
 block4c_expand_conv (Conv2D)   (None, 14, 14, 384)  36864       ['block4b_add[0][0]']            
                                                                                                  
 block4c_expand_bn (BatchNormal  (None, 14, 14, 384)  1536       ['block4c_expand_conv[0][0]']    
 ization)                                                                                         
                                                                                                  
 block4c_expand_activation (Act  (None, 14, 14, 384)  0          ['block4c_expand_bn[0][0]']      
 ivation)                                                                                         
                                                                                                  
 block4c_dwconv2 (DepthwiseConv  (None, 14, 14, 384)  3456       ['block4c_expand_activation[0][0]
 2D)                                                             ']                               
                                                                                                  
 block4c_bn (BatchNormalization  (None, 14, 14, 384)  1536       ['block4c_dwconv2[0][0]']        
 )                                                                                                
                                                                                                  
 block4c_activation (Activation  (None, 14, 14, 384)  0          ['block4c_bn[0][0]']             
 )                                                                                                
                                                                                                  
 block4c_se_squeeze (GlobalAver  (None, 384)         0           ['block4c_activation[0][0]']     
 agePooling2D)                                                                                    
                                                                                                  
 block4c_se_reshape (Reshape)   (None, 1, 1, 384)    0           ['block4c_se_squeeze[0][0]']     
                                                                                                  
 block4c_se_reduce (Conv2D)     (None, 1, 1, 24)     9240        ['block4c_se_reshape[0][0]']     
                                                                                                  
 block4c_se_expand (Conv2D)     (None, 1, 1, 384)    9600        ['block4c_se_reduce[0][0]']      
                                                                                                  
 block4c_se_excite (Multiply)   (None, 14, 14, 384)  0           ['block4c_activation[0][0]',     
                                                                  'block4c_se_expand[0][0]']      
                                                                                                  
 block4c_project_conv (Conv2D)  (None, 14, 14, 96)   36864       ['block4c_se_excite[0][0]']      
                                                                                                  
 block4c_project_bn (BatchNorma  (None, 14, 14, 96)  384         ['block4c_project_conv[0][0]']   
 lization)                                                                                        
                                                                                                  
 block4c_drop (Dropout)         (None, 14, 14, 96)   0           ['block4c_project_bn[0][0]']     
                                                                                                  
 block4c_add (Add)              (None, 14, 14, 96)   0           ['block4c_drop[0][0]',           
                                                                  'block4b_add[0][0]']            
                                                                                                  
 block5a_expand_conv (Conv2D)   (None, 14, 14, 576)  55296       ['block4c_add[0][0]']            
                                                                                                  
 block5a_expand_bn (BatchNormal  (None, 14, 14, 576)  2304       ['block5a_expand_conv[0][0]']    
 ization)                                                                                         
                                                                                                  
 block5a_expand_activation (Act  (None, 14, 14, 576)  0          ['block5a_expand_bn[0][0]']      
 ivation)                                                                                         
                                                                                                  
 block5a_dwconv2 (DepthwiseConv  (None, 14, 14, 576)  5184       ['block5a_expand_activation[0][0]
 2D)                                                             ']                               
                                                                                                  
 block5a_bn (BatchNormalization  (None, 14, 14, 576)  2304       ['block5a_dwconv2[0][0]']        
 )                                                                                                
                                                                                                  
 block5a_activation (Activation  (None, 14, 14, 576)  0          ['block5a_bn[0][0]']             
 )                                                                                                
                                                                                                  
 block5a_se_squeeze (GlobalAver  (None, 576)         0           ['block5a_activation[0][0]']     
 agePooling2D)                                                                                    
                                                                                                  
 block5a_se_reshape (Reshape)   (None, 1, 1, 576)    0           ['block5a_se_squeeze[0][0]']     
                                                                                                  
 block5a_se_reduce (Conv2D)     (None, 1, 1, 24)     13848       ['block5a_se_reshape[0][0]']     
                                                                                                  
 block5a_se_expand (Conv2D)     (None, 1, 1, 576)    14400       ['block5a_se_reduce[0][0]']      
                                                                                                  
 block5a_se_excite (Multiply)   (None, 14, 14, 576)  0           ['block5a_activation[0][0]',     
                                                                  'block5a_se_expand[0][0]']      
                                                                                                  
 block5a_project_conv (Conv2D)  (None, 14, 14, 112)  64512       ['block5a_se_excite[0][0]']      
                                                                                                  
 block5a_project_bn (BatchNorma  (None, 14, 14, 112)  448        ['block5a_project_conv[0][0]']   
 lization)                                                                                        
                                                                                                  
 block5b_expand_conv (Conv2D)   (None, 14, 14, 672)  75264       ['block5a_project_bn[0][0]']     
                                                                                                  
 block5b_expand_bn (BatchNormal  (None, 14, 14, 672)  2688       ['block5b_expand_conv[0][0]']    
 ization)                                                                                         
                                                                                                  
 block5b_expand_activation (Act  (None, 14, 14, 672)  0          ['block5b_expand_bn[0][0]']      
 ivation)                                                                                         
                                                                                                  
 block5b_dwconv2 (DepthwiseConv  (None, 14, 14, 672)  6048       ['block5b_expand_activation[0][0]
 2D)                                                             ']                               
                                                                                                  
 block5b_bn (BatchNormalization  (None, 14, 14, 672)  2688       ['block5b_dwconv2[0][0]']        
 )                                                                                                
                                                                                                  
 block5b_activation (Activation  (None, 14, 14, 672)  0          ['block5b_bn[0][0]']             
 )                                                                                                
                                                                                                  
 block5b_se_squeeze (GlobalAver  (None, 672)         0           ['block5b_activation[0][0]']     
 agePooling2D)                                                                                    
                                                                                                  
 block5b_se_reshape (Reshape)   (None, 1, 1, 672)    0           ['block5b_se_squeeze[0][0]']     
                                                                                                  
 block5b_se_reduce (Conv2D)     (None, 1, 1, 28)     18844       ['block5b_se_reshape[0][0]']     
                                                                                                  
 block5b_se_expand (Conv2D)     (None, 1, 1, 672)    19488       ['block5b_se_reduce[0][0]']      
                                                                                                  
 block5b_se_excite (Multiply)   (None, 14, 14, 672)  0           ['block5b_activation[0][0]',     
                                                                  'block5b_se_expand[0][0]']      
                                                                                                  
 block5b_project_conv (Conv2D)  (None, 14, 14, 112)  75264       ['block5b_se_excite[0][0]']      
                                                                                                  
 block5b_project_bn (BatchNorma  (None, 14, 14, 112)  448        ['block5b_project_conv[0][0]']   
 lization)                                                                                        
                                                                                                  
 block5b_drop (Dropout)         (None, 14, 14, 112)  0           ['block5b_project_bn[0][0]']     
                                                                                                  
 block5b_add (Add)              (None, 14, 14, 112)  0           ['block5b_drop[0][0]',           
                                                                  'block5a_project_bn[0][0]']     
                                                                                                  
 block5c_expand_conv (Conv2D)   (None, 14, 14, 672)  75264       ['block5b_add[0][0]']            
                                                                                                  
 block5c_expand_bn (BatchNormal  (None, 14, 14, 672)  2688       ['block5c_expand_conv[0][0]']    
 ization)                                                                                         
                                                                                                  
 block5c_expand_activation (Act  (None, 14, 14, 672)  0          ['block5c_expand_bn[0][0]']      
 ivation)                                                                                         
                                                                                                  
 block5c_dwconv2 (DepthwiseConv  (None, 14, 14, 672)  6048       ['block5c_expand_activation[0][0]
 2D)                                                             ']                               
                                                                                                  
 block5c_bn (BatchNormalization  (None, 14, 14, 672)  2688       ['block5c_dwconv2[0][0]']        
 )                                                                                                
                                                                                                  
 block5c_activation (Activation  (None, 14, 14, 672)  0          ['block5c_bn[0][0]']             
 )                                                                                                
                                                                                                  
 block5c_se_squeeze (GlobalAver  (None, 672)         0           ['block5c_activation[0][0]']     
 agePooling2D)                                                                                    
                                                                                                  
 block5c_se_reshape (Reshape)   (None, 1, 1, 672)    0           ['block5c_se_squeeze[0][0]']     
                                                                                                  
 block5c_se_reduce (Conv2D)     (None, 1, 1, 28)     18844       ['block5c_se_reshape[0][0]']     
                                                                                                  
 block5c_se_expand (Conv2D)     (None, 1, 1, 672)    19488       ['block5c_se_reduce[0][0]']      
                                                                                                  
 block5c_se_excite (Multiply)   (None, 14, 14, 672)  0           ['block5c_activation[0][0]',     
                                                                  'block5c_se_expand[0][0]']      
                                                                                                  
 block5c_project_conv (Conv2D)  (None, 14, 14, 112)  75264       ['block5c_se_excite[0][0]']      
                                                                                                  
 block5c_project_bn (BatchNorma  (None, 14, 14, 112)  448        ['block5c_project_conv[0][0]']   
 lization)                                                                                        
                                                                                                  
 block5c_drop (Dropout)         (None, 14, 14, 112)  0           ['block5c_project_bn[0][0]']     
                                                                                                  
 block5c_add (Add)              (None, 14, 14, 112)  0           ['block5c_drop[0][0]',           
                                                                  'block5b_add[0][0]']            
                                                                                                  
 block5d_expand_conv (Conv2D)   (None, 14, 14, 672)  75264       ['block5c_add[0][0]']            
                                                                                                  
 block5d_expand_bn (BatchNormal  (None, 14, 14, 672)  2688       ['block5d_expand_conv[0][0]']    
 ization)                                                                                         
                                                                                                  
 block5d_expand_activation (Act  (None, 14, 14, 672)  0          ['block5d_expand_bn[0][0]']      
 ivation)                                                                                         
                                                                                                  
 block5d_dwconv2 (DepthwiseConv  (None, 14, 14, 672)  6048       ['block5d_expand_activation[0][0]
 2D)                                                             ']                               
                                                                                                  
 block5d_bn (BatchNormalization  (None, 14, 14, 672)  2688       ['block5d_dwconv2[0][0]']        
 )                                                                                                
                                                                                                  
 block5d_activation (Activation  (None, 14, 14, 672)  0          ['block5d_bn[0][0]']             
 )                                                                                                
                                                                                                  
 block5d_se_squeeze (GlobalAver  (None, 672)         0           ['block5d_activation[0][0]']     
 agePooling2D)                                                                                    
                                                                                                  
 block5d_se_reshape (Reshape)   (None, 1, 1, 672)    0           ['block5d_se_squeeze[0][0]']     
                                                                                                  
 block5d_se_reduce (Conv2D)     (None, 1, 1, 28)     18844       ['block5d_se_reshape[0][0]']     
                                                                                                  
 block5d_se_expand (Conv2D)     (None, 1, 1, 672)    19488       ['block5d_se_reduce[0][0]']      
                                                                                                  
 block5d_se_excite (Multiply)   (None, 14, 14, 672)  0           ['block5d_activation[0][0]',     
                                                                  'block5d_se_expand[0][0]']      
                                                                                                  
 block5d_project_conv (Conv2D)  (None, 14, 14, 112)  75264       ['block5d_se_excite[0][0]']      
                                                                                                  
 block5d_project_bn (BatchNorma  (None, 14, 14, 112)  448        ['block5d_project_conv[0][0]']   
 lization)                                                                                        
                                                                                                  
 block5d_drop (Dropout)         (None, 14, 14, 112)  0           ['block5d_project_bn[0][0]']     
                                                                                                  
 block5d_add (Add)              (None, 14, 14, 112)  0           ['block5d_drop[0][0]',           
                                                                  'block5c_add[0][0]']            
                                                                                                  
 block5e_expand_conv (Conv2D)   (None, 14, 14, 672)  75264       ['block5d_add[0][0]']            
                                                                                                  
 block5e_expand_bn (BatchNormal  (None, 14, 14, 672)  2688       ['block5e_expand_conv[0][0]']    
 ization)                                                                                         
                                                                                                  
 block5e_expand_activation (Act  (None, 14, 14, 672)  0          ['block5e_expand_bn[0][0]']      
 ivation)                                                                                         
                                                                                                  
 block5e_dwconv2 (DepthwiseConv  (None, 14, 14, 672)  6048       ['block5e_expand_activation[0][0]
 2D)                                                             ']                               
                                                                                                  
 block5e_bn (BatchNormalization  (None, 14, 14, 672)  2688       ['block5e_dwconv2[0][0]']        
 )                                                                                                
                                                                                                  
 block5e_activation (Activation  (None, 14, 14, 672)  0          ['block5e_bn[0][0]']             
 )                                                                                                
                                                                                                  
 block5e_se_squeeze (GlobalAver  (None, 672)         0           ['block5e_activation[0][0]']     
 agePooling2D)                                                                                    
                                                                                                  
 block5e_se_reshape (Reshape)   (None, 1, 1, 672)    0           ['block5e_se_squeeze[0][0]']     
                                                                                                  
 block5e_se_reduce (Conv2D)     (None, 1, 1, 28)     18844       ['block5e_se_reshape[0][0]']     
                                                                                                  
 block5e_se_expand (Conv2D)     (None, 1, 1, 672)    19488       ['block5e_se_reduce[0][0]']      
                                                                                                  
 block5e_se_excite (Multiply)   (None, 14, 14, 672)  0           ['block5e_activation[0][0]',     
                                                                  'block5e_se_expand[0][0]']      
                                                                                                  
 block5e_project_conv (Conv2D)  (None, 14, 14, 112)  75264       ['block5e_se_excite[0][0]']      
                                                                                                  
 block5e_project_bn (BatchNorma  (None, 14, 14, 112)  448        ['block5e_project_conv[0][0]']   
 lization)                                                                                        
                                                                                                  
 block5e_drop (Dropout)         (None, 14, 14, 112)  0           ['block5e_project_bn[0][0]']     
                                                                                                  
 block5e_add (Add)              (None, 14, 14, 112)  0           ['block5e_drop[0][0]',           
                                                                  'block5d_add[0][0]']            
                                                                                                  
 block6a_expand_conv (Conv2D)   (None, 14, 14, 672)  75264       ['block5e_add[0][0]']            
                                                                                                  
 block6a_expand_bn (BatchNormal  (None, 14, 14, 672)  2688       ['block6a_expand_conv[0][0]']    
 ization)                                                                                         
                                                                                                  
 block6a_expand_activation (Act  (None, 14, 14, 672)  0          ['block6a_expand_bn[0][0]']      
 ivation)                                                                                         
                                                                                                  
 block6a_dwconv2 (DepthwiseConv  (None, 7, 7, 672)   6048        ['block6a_expand_activation[0][0]
 2D)                                                             ']                               
                                                                                                  
 block6a_bn (BatchNormalization  (None, 7, 7, 672)   2688        ['block6a_dwconv2[0][0]']        
 )                                                                                                
                                                                                                  
 block6a_activation (Activation  (None, 7, 7, 672)   0           ['block6a_bn[0][0]']             
 )                                                                                                
                                                                                                  
 block6a_se_squeeze (GlobalAver  (None, 672)         0           ['block6a_activation[0][0]']     
 agePooling2D)                                                                                    
                                                                                                  
 block6a_se_reshape (Reshape)   (None, 1, 1, 672)    0           ['block6a_se_squeeze[0][0]']     
                                                                                                  
 block6a_se_reduce (Conv2D)     (None, 1, 1, 28)     18844       ['block6a_se_reshape[0][0]']     
                                                                                                  
 block6a_se_expand (Conv2D)     (None, 1, 1, 672)    19488       ['block6a_se_reduce[0][0]']      
                                                                                                  
 block6a_se_excite (Multiply)   (None, 7, 7, 672)    0           ['block6a_activation[0][0]',     
                                                                  'block6a_se_expand[0][0]']      
                                                                                                  
 block6a_project_conv (Conv2D)  (None, 7, 7, 192)    129024      ['block6a_se_excite[0][0]']      
                                                                                                  
 block6a_project_bn (BatchNorma  (None, 7, 7, 192)   768         ['block6a_project_conv[0][0]']   
 lization)                                                                                        
                                                                                                  
 block6b_expand_conv (Conv2D)   (None, 7, 7, 1152)   221184      ['block6a_project_bn[0][0]']     
                                                                                                  
 block6b_expand_bn (BatchNormal  (None, 7, 7, 1152)  4608        ['block6b_expand_conv[0][0]']    
 ization)                                                                                         
                                                                                                  
 block6b_expand_activation (Act  (None, 7, 7, 1152)  0           ['block6b_expand_bn[0][0]']      
 ivation)                                                                                         
                                                                                                  
 block6b_dwconv2 (DepthwiseConv  (None, 7, 7, 1152)  10368       ['block6b_expand_activation[0][0]
 2D)                                                             ']                               
                                                                                                  
 block6b_bn (BatchNormalization  (None, 7, 7, 1152)  4608        ['block6b_dwconv2[0][0]']        
 )                                                                                                
                                                                                                  
 block6b_activation (Activation  (None, 7, 7, 1152)  0           ['block6b_bn[0][0]']             
 )                                                                                                
                                                                                                  
 block6b_se_squeeze (GlobalAver  (None, 1152)        0           ['block6b_activation[0][0]']     
 agePooling2D)                                                                                    
                                                                                                  
 block6b_se_reshape (Reshape)   (None, 1, 1, 1152)   0           ['block6b_se_squeeze[0][0]']     
                                                                                                  
 block6b_se_reduce (Conv2D)     (None, 1, 1, 48)     55344       ['block6b_se_reshape[0][0]']     
                                                                                                  
 block6b_se_expand (Conv2D)     (None, 1, 1, 1152)   56448       ['block6b_se_reduce[0][0]']      
                                                                                                  
 block6b_se_excite (Multiply)   (None, 7, 7, 1152)   0           ['block6b_activation[0][0]',     
                                                                  'block6b_se_expand[0][0]']      
                                                                                                  
 block6b_project_conv (Conv2D)  (None, 7, 7, 192)    221184      ['block6b_se_excite[0][0]']      
                                                                                                  
 block6b_project_bn (BatchNorma  (None, 7, 7, 192)   768         ['block6b_project_conv[0][0]']   
 lization)                                                                                        
                                                                                                  
 block6b_drop (Dropout)         (None, 7, 7, 192)    0           ['block6b_project_bn[0][0]']     
                                                                                                  
 block6b_add (Add)              (None, 7, 7, 192)    0           ['block6b_drop[0][0]',           
                                                                  'block6a_project_bn[0][0]']     
                                                                                                  
 block6c_expand_conv (Conv2D)   (None, 7, 7, 1152)   221184      ['block6b_add[0][0]']            
                                                                                                  
 block6c_expand_bn (BatchNormal  (None, 7, 7, 1152)  4608        ['block6c_expand_conv[0][0]']    
 ization)                                                                                         
                                                                                                  
 block6c_expand_activation (Act  (None, 7, 7, 1152)  0           ['block6c_expand_bn[0][0]']      
 ivation)                                                                                         
                                                                                                  
 block6c_dwconv2 (DepthwiseConv  (None, 7, 7, 1152)  10368       ['block6c_expand_activation[0][0]
 2D)                                                             ']                               
                                                                                                  
 block6c_bn (BatchNormalization  (None, 7, 7, 1152)  4608        ['block6c_dwconv2[0][0]']        
 )                                                                                                
                                                                                                  
 block6c_activation (Activation  (None, 7, 7, 1152)  0           ['block6c_bn[0][0]']             
 )                                                                                                
                                                                                                  
 block6c_se_squeeze (GlobalAver  (None, 1152)        0           ['block6c_activation[0][0]']     
 agePooling2D)                                                                                    
                                                                                                  
 block6c_se_reshape (Reshape)   (None, 1, 1, 1152)   0           ['block6c_se_squeeze[0][0]']     
                                                                                                  
 block6c_se_reduce (Conv2D)     (None, 1, 1, 48)     55344       ['block6c_se_reshape[0][0]']     
                                                                                                  
 block6c_se_expand (Conv2D)     (None, 1, 1, 1152)   56448       ['block6c_se_reduce[0][0]']      
                                                                                                  
 block6c_se_excite (Multiply)   (None, 7, 7, 1152)   0           ['block6c_activation[0][0]',     
                                                                  'block6c_se_expand[0][0]']      
                                                                                                  
 block6c_project_conv (Conv2D)  (None, 7, 7, 192)    221184      ['block6c_se_excite[0][0]']      
                                                                                                  
 block6c_project_bn (BatchNorma  (None, 7, 7, 192)   768         ['block6c_project_conv[0][0]']   
 lization)                                                                                        
                                                                                                  
 block6c_drop (Dropout)         (None, 7, 7, 192)    0           ['block6c_project_bn[0][0]']     
                                                                                                  
 block6c_add (Add)              (None, 7, 7, 192)    0           ['block6c_drop[0][0]',           
                                                                  'block6b_add[0][0]']            
                                                                                                  
 block6d_expand_conv (Conv2D)   (None, 7, 7, 1152)   221184      ['block6c_add[0][0]']            
                                                                                                  
 block6d_expand_bn (BatchNormal  (None, 7, 7, 1152)  4608        ['block6d_expand_conv[0][0]']    
 ization)                                                                                         
                                                                                                  
 block6d_expand_activation (Act  (None, 7, 7, 1152)  0           ['block6d_expand_bn[0][0]']      
 ivation)                                                                                         
                                                                                                  
 block6d_dwconv2 (DepthwiseConv  (None, 7, 7, 1152)  10368       ['block6d_expand_activation[0][0]
 2D)                                                             ']                               
                                                                                                  
 block6d_bn (BatchNormalization  (None, 7, 7, 1152)  4608        ['block6d_dwconv2[0][0]']        
 )                                                                                                
                                                                                                  
 block6d_activation (Activation  (None, 7, 7, 1152)  0           ['block6d_bn[0][0]']             
 )                                                                                                
                                                                                                  
 block6d_se_squeeze (GlobalAver  (None, 1152)        0           ['block6d_activation[0][0]']     
 agePooling2D)                                                                                    
                                                                                                  
 block6d_se_reshape (Reshape)   (None, 1, 1, 1152)   0           ['block6d_se_squeeze[0][0]']     
                                                                                                  
 block6d_se_reduce (Conv2D)     (None, 1, 1, 48)     55344       ['block6d_se_reshape[0][0]']     
                                                                                                  
 block6d_se_expand (Conv2D)     (None, 1, 1, 1152)   56448       ['block6d_se_reduce[0][0]']      
                                                                                                  
 block6d_se_excite (Multiply)   (None, 7, 7, 1152)   0           ['block6d_activation[0][0]',     
                                                                  'block6d_se_expand[0][0]']      
                                                                                                  
 block6d_project_conv (Conv2D)  (None, 7, 7, 192)    221184      ['block6d_se_excite[0][0]']      
                                                                                                  
 block6d_project_bn (BatchNorma  (None, 7, 7, 192)   768         ['block6d_project_conv[0][0]']   
 lization)                                                                                        
                                                                                                  
 block6d_drop (Dropout)         (None, 7, 7, 192)    0           ['block6d_project_bn[0][0]']     
                                                                                                  
 block6d_add (Add)              (None, 7, 7, 192)    0           ['block6d_drop[0][0]',           
                                                                  'block6c_add[0][0]']            
                                                                                                  
 block6e_expand_conv (Conv2D)   (None, 7, 7, 1152)   221184      ['block6d_add[0][0]']            
                                                                                                  
 block6e_expand_bn (BatchNormal  (None, 7, 7, 1152)  4608        ['block6e_expand_conv[0][0]']    
 ization)                                                                                         
                                                                                                  
 block6e_expand_activation (Act  (None, 7, 7, 1152)  0           ['block6e_expand_bn[0][0]']      
 ivation)                                                                                         
                                                                                                  
 block6e_dwconv2 (DepthwiseConv  (None, 7, 7, 1152)  10368       ['block6e_expand_activation[0][0]
 2D)                                                             ']                               
                                                                                                  
 block6e_bn (BatchNormalization  (None, 7, 7, 1152)  4608        ['block6e_dwconv2[0][0]']        
 )                                                                                                
                                                                                                  
 block6e_activation (Activation  (None, 7, 7, 1152)  0           ['block6e_bn[0][0]']             
 )                                                                                                
                                                                                                  
 block6e_se_squeeze (GlobalAver  (None, 1152)        0           ['block6e_activation[0][0]']     
 agePooling2D)                                                                                    
                                                                                                  
 block6e_se_reshape (Reshape)   (None, 1, 1, 1152)   0           ['block6e_se_squeeze[0][0]']     
                                                                                                  
 block6e_se_reduce (Conv2D)     (None, 1, 1, 48)     55344       ['block6e_se_reshape[0][0]']     
                                                                                                  
 block6e_se_expand (Conv2D)     (None, 1, 1, 1152)   56448       ['block6e_se_reduce[0][0]']      
                                                                                                  
 block6e_se_excite (Multiply)   (None, 7, 7, 1152)   0           ['block6e_activation[0][0]',     
                                                                  'block6e_se_expand[0][0]']      
                                                                                                  
 block6e_project_conv (Conv2D)  (None, 7, 7, 192)    221184      ['block6e_se_excite[0][0]']      
                                                                                                  
 block6e_project_bn (BatchNorma  (None, 7, 7, 192)   768         ['block6e_project_conv[0][0]']   
 lization)                                                                                        
                                                                                                  
 block6e_drop (Dropout)         (None, 7, 7, 192)    0           ['block6e_project_bn[0][0]']     
                                                                                                  
 block6e_add (Add)              (None, 7, 7, 192)    0           ['block6e_drop[0][0]',           
                                                                  'block6d_add[0][0]']            
                                                                                                  
 block6f_expand_conv (Conv2D)   (None, 7, 7, 1152)   221184      ['block6e_add[0][0]']            
                                                                                                  
 block6f_expand_bn (BatchNormal  (None, 7, 7, 1152)  4608        ['block6f_expand_conv[0][0]']    
 ization)                                                                                         
                                                                                                  
 block6f_expand_activation (Act  (None, 7, 7, 1152)  0           ['block6f_expand_bn[0][0]']      
 ivation)                                                                                         
                                                                                                  
 block6f_dwconv2 (DepthwiseConv  (None, 7, 7, 1152)  10368       ['block6f_expand_activation[0][0]
 2D)                                                             ']                               
                                                                                                  
 block6f_bn (BatchNormalization  (None, 7, 7, 1152)  4608        ['block6f_dwconv2[0][0]']        
 )                                                                                                
                                                                                                  
 block6f_activation (Activation  (None, 7, 7, 1152)  0           ['block6f_bn[0][0]']             
 )                                                                                                
                                                                                                  
 block6f_se_squeeze (GlobalAver  (None, 1152)        0           ['block6f_activation[0][0]']     
 agePooling2D)                                                                                    
                                                                                                  
 block6f_se_reshape (Reshape)   (None, 1, 1, 1152)   0           ['block6f_se_squeeze[0][0]']     
                                                                                                  
 block6f_se_reduce (Conv2D)     (None, 1, 1, 48)     55344       ['block6f_se_reshape[0][0]']     
                                                                                                  
 block6f_se_expand (Conv2D)     (None, 1, 1, 1152)   56448       ['block6f_se_reduce[0][0]']      
                                                                                                  
 block6f_se_excite (Multiply)   (None, 7, 7, 1152)   0           ['block6f_activation[0][0]',     
                                                                  'block6f_se_expand[0][0]']      
                                                                                                  
 block6f_project_conv (Conv2D)  (None, 7, 7, 192)    221184      ['block6f_se_excite[0][0]']      
                                                                                                  
 block6f_project_bn (BatchNorma  (None, 7, 7, 192)   768         ['block6f_project_conv[0][0]']   
 lization)                                                                                        
                                                                                                  
 block6f_drop (Dropout)         (None, 7, 7, 192)    0           ['block6f_project_bn[0][0]']     
                                                                                                  
 block6f_add (Add)              (None, 7, 7, 192)    0           ['block6f_drop[0][0]',           
                                                                  'block6e_add[0][0]']            
                                                                                                  
 block6g_expand_conv (Conv2D)   (None, 7, 7, 1152)   221184      ['block6f_add[0][0]']            
                                                                                                  
 block6g_expand_bn (BatchNormal  (None, 7, 7, 1152)  4608        ['block6g_expand_conv[0][0]']    
 ization)                                                                                         
                                                                                                  
 block6g_expand_activation (Act  (None, 7, 7, 1152)  0           ['block6g_expand_bn[0][0]']      
 ivation)                                                                                         
                                                                                                  
 block6g_dwconv2 (DepthwiseConv  (None, 7, 7, 1152)  10368       ['block6g_expand_activation[0][0]
 2D)                                                             ']                               
                                                                                                  
 block6g_bn (BatchNormalization  (None, 7, 7, 1152)  4608        ['block6g_dwconv2[0][0]']        
 )                                                                                                
                                                                                                  
 block6g_activation (Activation  (None, 7, 7, 1152)  0           ['block6g_bn[0][0]']             
 )                                                                                                
                                                                                                  
 block6g_se_squeeze (GlobalAver  (None, 1152)        0           ['block6g_activation[0][0]']     
 agePooling2D)                                                                                    
                                                                                                  
 block6g_se_reshape (Reshape)   (None, 1, 1, 1152)   0           ['block6g_se_squeeze[0][0]']     
                                                                                                  
 block6g_se_reduce (Conv2D)     (None, 1, 1, 48)     55344       ['block6g_se_reshape[0][0]']     
                                                                                                  
 block6g_se_expand (Conv2D)     (None, 1, 1, 1152)   56448       ['block6g_se_reduce[0][0]']      
                                                                                                  
 block6g_se_excite (Multiply)   (None, 7, 7, 1152)   0           ['block6g_activation[0][0]',     
                                                                  'block6g_se_expand[0][0]']      
                                                                                                  
 block6g_project_conv (Conv2D)  (None, 7, 7, 192)    221184      ['block6g_se_excite[0][0]']      
                                                                                                  
 block6g_project_bn (BatchNorma  (None, 7, 7, 192)   768         ['block6g_project_conv[0][0]']   
 lization)                                                                                        
                                                                                                  
 block6g_drop (Dropout)         (None, 7, 7, 192)    0           ['block6g_project_bn[0][0]']     
                                                                                                  
 block6g_add (Add)              (None, 7, 7, 192)    0           ['block6g_drop[0][0]',           
                                                                  'block6f_add[0][0]']            
                                                                                                  
 block6h_expand_conv (Conv2D)   (None, 7, 7, 1152)   221184      ['block6g_add[0][0]']            
                                                                                                  
 block6h_expand_bn (BatchNormal  (None, 7, 7, 1152)  4608        ['block6h_expand_conv[0][0]']    
 ization)                                                                                         
                                                                                                  
 block6h_expand_activation (Act  (None, 7, 7, 1152)  0           ['block6h_expand_bn[0][0]']      
 ivation)                                                                                         
                                                                                                  
 block6h_dwconv2 (DepthwiseConv  (None, 7, 7, 1152)  10368       ['block6h_expand_activation[0][0]
 2D)                                                             ']                               
                                                                                                  
 block6h_bn (BatchNormalization  (None, 7, 7, 1152)  4608        ['block6h_dwconv2[0][0]']        
 )                                                                                                
                                                                                                  
 block6h_activation (Activation  (None, 7, 7, 1152)  0           ['block6h_bn[0][0]']             
 )                                                                                                
                                                                                                  
 block6h_se_squeeze (GlobalAver  (None, 1152)        0           ['block6h_activation[0][0]']     
 agePooling2D)                                                                                    
                                                                                                  
 block6h_se_reshape (Reshape)   (None, 1, 1, 1152)   0           ['block6h_se_squeeze[0][0]']     
                                                                                                  
 block6h_se_reduce (Conv2D)     (None, 1, 1, 48)     55344       ['block6h_se_reshape[0][0]']     
                                                                                                  
 block6h_se_expand (Conv2D)     (None, 1, 1, 1152)   56448       ['block6h_se_reduce[0][0]']      
                                                                                                  
 block6h_se_excite (Multiply)   (None, 7, 7, 1152)   0           ['block6h_activation[0][0]',     
                                                                  'block6h_se_expand[0][0]']      
                                                                                                  
 block6h_project_conv (Conv2D)  (None, 7, 7, 192)    221184      ['block6h_se_excite[0][0]']      
                                                                                                  
 block6h_project_bn (BatchNorma  (None, 7, 7, 192)   768         ['block6h_project_conv[0][0]']   
 lization)                                                                                        
                                                                                                  
 block6h_drop (Dropout)         (None, 7, 7, 192)    0           ['block6h_project_bn[0][0]']     
                                                                                                  
 block6h_add (Add)              (None, 7, 7, 192)    0           ['block6h_drop[0][0]',           
                                                                  'block6g_add[0][0]']            
                                                                                                  
 top_conv (Conv2D)              (None, 7, 7, 1280)   245760      ['block6h_add[0][0]']            
                                                                                                  
 top_bn (BatchNormalization)    (None, 7, 7, 1280)   5120        ['top_conv[0][0]']               
                                                                                                  
 top_activation (Activation)    (None, 7, 7, 1280)   0           ['top_bn[0][0]']                 
                                                                                                  
 global_average_pooling2d (Glob  (None, 1280)        0           ['top_activation[0][0]']         
 alAveragePooling2D)                                                                              
                                                                                                  
 dropout (Dropout)              (None, 1280)         0           ['global_average_pooling2d[0][0]'
                                                                 ]                                
                                                                                                  
 dense (Dense)                  (None, 2048)         2623488     ['dropout[0][0]']                
                                                                                                  
 dropout_1 (Dropout)            (None, 2048)         0           ['dense[0][0]']                  
                                                                                                  
 dense_1 (Dense)                (None, 2)            4098        ['dropout_1[0][0]']              
                                                                                                  
==================================================================================================
Total params: 8,546,898
Trainable params: 8,486,290
Non-trainable params: 60,608
__________________________________________________________________________________________________
