…
                                )                                ]']                              
                                                                                                  
 block1b_add (Add)              (None, 150, 150, 16  0           ['block1b_drop[0][0]',           
                                )                                 'block1a_project_activation[0][0
                                                                 ]']                              
                                                                                                  
 block2a_expand_conv (Conv2D)   (None, 75, 75, 64)   9216        ['block1b_add[0][0]']            
                                                                                                  
 block2a_expand_bn (BatchNormal  (None, 75, 75, 64)  256         ['block2a_expand_conv[0][0]']    
 ization)                                                                                         
                                                                                                  
 block2a_expand_activation (Act  (None, 75, 75, 64)  0           ['block2a_expand_bn[0][0]']      
 ivation)                                                                                         
                                                                                                  
 block2a_project_conv (Conv2D)  (None, 75, 75, 40)   2560        ['block2a_expand_activation[0][0]
                                                                 ']                               
                                                                                                  
 block2a_project_bn (BatchNorma  (None, 75, 75, 40)  160         ['block2a_project_conv[0][0]']   
 lization)                                                                                        
                                                                                                  
 block2b_expand_conv (Conv2D)   (None, 75, 75, 160)  57600       ['block2a_project_bn[0][0]']     
                                                                                                  
 block2b_expand_bn (BatchNormal  (None, 75, 75, 160)  640        ['block2b_expand_conv[0][0]']    
 ization)                                                                                         
                                                                                                  
 block2b_expand_activation (Act  (None, 75, 75, 160)  0          ['block2b_expand_bn[0][0]']      
 ivation)                                                                                         
                                                                                                  
 block2b_project_conv (Conv2D)  (None, 75, 75, 40)   6400        ['block2b_expand_activation[0][0]
                                                                 ']                               
                                                                                                  
 block2b_project_bn (BatchNorma  (None, 75, 75, 40)  160         ['block2b_project_conv[0][0]']   
 lization)                                                                                        
                                                                                                  
 block2b_drop (Dropout)         (None, 75, 75, 40)   0           ['block2b_project_bn[0][0]']     
                                                                                                  
 block2b_add (Add)              (None, 75, 75, 40)   0           ['block2b_drop[0][0]',           
                                                                  'block2a_project_bn[0][0]']     
                                                                                                  
 block2c_expand_conv (Conv2D)   (None, 75, 75, 160)  57600       ['block2b_add[0][0]']            
                                                                                                  
 block2c_expand_bn (BatchNormal  (None, 75, 75, 160)  640        ['block2c_expand_conv[0][0]']    
 ization)                                                                                         
                                                                                                  
 block2c_expand_activation (Act  (None, 75, 75, 160)  0          ['block2c_expand_bn[0][0]']      
 ivation)                                                                                         
                                                                                                  
 block2c_project_conv (Conv2D)  (None, 75, 75, 40)   6400        ['block2c_expand_activation[0][0]
                                                                 ']                               
                                                                                                  
 block2c_project_bn (BatchNorma  (None, 75, 75, 40)  160         ['block2c_project_conv[0][0]']   
 lization)                                                                                        
                                                                                                  
 block2c_drop (Dropout)         (None, 75, 75, 40)   0           ['block2c_project_bn[0][0]']     
                                                                                                  
 block2c_add (Add)              (None, 75, 75, 40)   0           ['block2c_drop[0][0]',           
                                                                  'block2b_add[0][0]']            
                                                                                                  
 block3a_expand_conv (Conv2D)   (None, 38, 38, 160)  57600       ['block2c_add[0][0]']            
                                                                                                  
 block3a_expand_bn (BatchNormal  (None, 38, 38, 160)  640        ['block3a_expand_conv[0][0]']    
 ization)                                                                                         
                                                                                                  
 block3a_expand_activation (Act  (None, 38, 38, 160)  0          ['block3a_expand_bn[0][0]']      
 ivation)                                                                                         
                                                                                                  
 block3a_project_conv (Conv2D)  (None, 38, 38, 56)   8960        ['block3a_expand_activation[0][0]
                                                                 ']                               
                                                                                                  
 block3a_project_bn (BatchNorma  (None, 38, 38, 56)  224         ['block3a_project_conv[0][0]']   
 lization)                                                                                        
                                                                                                  
 block3b_expand_conv (Conv2D)   (None, 38, 38, 224)  112896      ['block3a_project_bn[0][0]']     
                                                                                                  
 block3b_expand_bn (BatchNormal  (None, 38, 38, 224)  896        ['block3b_expand_conv[0][0]']    
 ization)                                                                                         
                                                                                                  
 block3b_expand_activation (Act  (None, 38, 38, 224)  0          ['block3b_expand_bn[0][0]']      
 ivation)                                                                                         
                                                                                                  
 block3b_project_conv (Conv2D)  (None, 38, 38, 56)   12544       ['block3b_expand_activation[0][0]
                                                                 ']                               
                                                                                                  
 block3b_project_bn (BatchNorma  (None, 38, 38, 56)  224         ['block3b_project_conv[0][0]']   
 lization)                                                                                        
                                                                                                  
 block3b_drop (Dropout)         (None, 38, 38, 56)   0           ['block3b_project_bn[0][0]']     
                                                                                                  
 block3b_add (Add)              (None, 38, 38, 56)   0           ['block3b_drop[0][0]',           
                                                                  'block3a_project_bn[0][0]']     
                                                                                                  
 block3c_expand_conv (Conv2D)   (None, 38, 38, 224)  112896      ['block3b_add[0][0]']            
                                                                                                  
 block3c_expand_bn (BatchNormal  (None, 38, 38, 224)  896        ['block3c_expand_conv[0][0]']    
 ization)                                                                                         
                                                                                                  
 block3c_expand_activation (Act  (None, 38, 38, 224)  0          ['block3c_expand_bn[0][0]']      
 ivation)                                                                                         
                                                                                                  
 block3c_project_conv (Conv2D)  (None, 38, 38, 56)   12544       ['block3c_expand_activation[0][0]
                                                                 ']                               
                                                                                                  
 block3c_project_bn (BatchNorma  (None, 38, 38, 56)  224         ['block3c_project_conv[0][0]']   
 lization)                                                                                        
                                                                                                  
 block3c_drop (Dropout)         (None, 38, 38, 56)   0           ['block3c_project_bn[0][0]']     
                                                                                                  
 block3c_add (Add)              (None, 38, 38, 56)   0           ['block3c_drop[0][0]',           
                                                                  'block3b_add[0][0]']            
                                                                                                  
 block4a_expand_conv (Conv2D)   (None, 38, 38, 224)  12544       ['block3c_add[0][0]']            
                                                                                                  
 block4a_expand_bn (BatchNormal  (None, 38, 38, 224)  896        ['block4a_expand_conv[0][0]']    
 ization)                                                                                         
                                                                                                  
 block4a_expand_activation (Act  (None, 38, 38, 224)  0          ['block4a_expand_bn[0][0]']      
 ivation)                                                                                         
                                                                                                  
 block4a_dwconv2 (DepthwiseConv  (None, 19, 19, 224)  2016       ['block4a_expand_activation[0][0]
 2D)                                                             ']                               
                                                                                                  
 block4a_bn (BatchNormalization  (None, 19, 19, 224)  896        ['block4a_dwconv2[0][0]']        
 )                                                                                                
                                                                                                  
 block4a_activation (Activation  (None, 19, 19, 224)  0          ['block4a_bn[0][0]']             
 )                                                                                                
                                                                                                  
 block4a_se_squeeze (GlobalAver  (None, 224)         0           ['block4a_activation[0][0]']     
 agePooling2D)                                                                                    
                                                                                                  
 block4a_se_reshape (Reshape)   (None, 1, 1, 224)    0           ['block4a_se_squeeze[0][0]']     
                                                                                                  
 block4a_se_reduce (Conv2D)     (None, 1, 1, 14)     3150        ['block4a_se_reshape[0][0]']     
                                                                                                  
 block4a_se_expand (Conv2D)     (None, 1, 1, 224)    3360        ['block4a_se_reduce[0][0]']      
                                                                                                  
 block4a_se_excite (Multiply)   (None, 19, 19, 224)  0           ['block4a_activation[0][0]',     
                                                                  'block4a_se_expand[0][0]']      
                                                                                                  
 block4a_project_conv (Conv2D)  (None, 19, 19, 112)  25088       ['block4a_se_excite[0][0]']      
                                                                                                  
 block4a_project_bn (BatchNorma  (None, 19, 19, 112)  448        ['block4a_project_conv[0][0]']   
 lization)                                                                                        
                                                                                                  
 block4b_expand_conv (Conv2D)   (None, 19, 19, 448)  50176       ['block4a_project_bn[0][0]']     
                                                                                                  
 block4b_expand_bn (BatchNormal  (None, 19, 19, 448)  1792       ['block4b_expand_conv[0][0]']    
 ization)                                                                                         
                                                                                                  
 block4b_expand_activation (Act  (None, 19, 19, 448)  0          ['block4b_expand_bn[0][0]']      
 ivation)                                                                                         
                                                                                                  
 block4b_dwconv2 (DepthwiseConv  (None, 19, 19, 448)  4032       ['block4b_expand_activation[0][0]
 2D)                                                             ']                               
                                                                                                  
 block4b_bn (BatchNormalization  (None, 19, 19, 448)  1792       ['block4b_dwconv2[0][0]']        
 )                                                                                                
                                                                                                  
 block4b_activation (Activation  (None, 19, 19, 448)  0          ['block4b_bn[0][0]']             
 )                                                                                                
                                                                                                  
 block4b_se_squeeze (GlobalAver  (None, 448)         0           ['block4b_activation[0][0]']     
 agePooling2D)                                                                                    
                                                                                                  
 block4b_se_reshape (Reshape)   (None, 1, 1, 448)    0           ['block4b_se_squeeze[0][0]']     
                                                                                                  
 block4b_se_reduce (Conv2D)     (None, 1, 1, 28)     12572       ['block4b_se_reshape[0][0]']     
                                                                                                  
 block4b_se_expand (Conv2D)     (None, 1, 1, 448)    12992       ['block4b_se_reduce[0][0]']      
                                                                                                  
 block4b_se_excite (Multiply)   (None, 19, 19, 448)  0           ['block4b_activation[0][0]',     
                                                                  'block4b_se_expand[0][0]']      
                                                                                                  
 block4b_project_conv (Conv2D)  (None, 19, 19, 112)  50176       ['block4b_se_excite[0][0]']      
                                                                                                  
 block4b_project_bn (BatchNorma  (None, 19, 19, 112)  448        ['block4b_project_conv[0][0]']   
 lization)                                                                                        
                                                                                                  
 block4b_drop (Dropout)         (None, 19, 19, 112)  0           ['block4b_project_bn[0][0]']     
                                                                                                  
 block4b_add (Add)              (None, 19, 19, 112)  0           ['block4b_drop[0][0]',           
                                                                  'block4a_project_bn[0][0]']     
                                                                                                  
 block4c_expand_conv (Conv2D)   (None, 19, 19, 448)  50176       ['block4b_add[0][0]']            
                                                                                                  
 block4c_expand_bn (BatchNormal  (None, 19, 19, 448)  1792       ['block4c_expand_conv[0][0]']    
 ization)                                                                                         
                                                                                                  
 block4c_expand_activation (Act  (None, 19, 19, 448)  0          ['block4c_expand_bn[0][0]']      
 ivation)                                                                                         
                                                                                                  
 block4c_dwconv2 (DepthwiseConv  (None, 19, 19, 448)  4032       ['block4c_expand_activation[0][0]
 2D)                                                             ']                               
                                                                                                  
 block4c_bn (BatchNormalization  (None, 19, 19, 448)  1792       ['block4c_dwconv2[0][0]']        
 )                                                                                                
                                                                                                  
 block4c_activation (Activation  (None, 19, 19, 448)  0          ['block4c_bn[0][0]']             
 )                                                                                                
                                                                                                  
 block4c_se_squeeze (GlobalAver  (None, 448)         0           ['block4c_activation[0][0]']     
 agePooling2D)                                                                                    
                                                                                                  
 block4c_se_reshape (Reshape)   (None, 1, 1, 448)    0           ['block4c_se_squeeze[0][0]']     
                                                                                                  
 block4c_se_reduce (Conv2D)     (None, 1, 1, 28)     12572       ['block4c_se_reshape[0][0]']     
                                                                                                  
 block4c_se_expand (Conv2D)     (None, 1, 1, 448)    12992       ['block4c_se_reduce[0][0]']      
                                                                                                  
 block4c_se_excite (Multiply)   (None, 19, 19, 448)  0           ['block4c_activation[0][0]',     
                                                                  'block4c_se_expand[0][0]']      
                                                                                                  
 block4c_project_conv (Conv2D)  (None, 19, 19, 112)  50176       ['block4c_se_excite[0][0]']      
                                                                                                  
 block4c_project_bn (BatchNorma  (None, 19, 19, 112)  448        ['block4c_project_conv[0][0]']   
 lization)                                                                                        
                                                                                                  
 block4c_drop (Dropout)         (None, 19, 19, 112)  0           ['block4c_project_bn[0][0]']     
                                                                                                  
 block4c_add (Add)              (None, 19, 19, 112)  0           ['block4c_drop[0][0]',           
                                                                  'block4b_add[0][0]']            
                                                                                                  
 block4d_expand_conv (Conv2D)   (None, 19, 19, 448)  50176       ['block4c_add[0][0]']            
                                                                                                  
 block4d_expand_bn (BatchNormal  (None, 19, 19, 448)  1792       ['block4d_expand_conv[0][0]']    
 ization)                                                                                         
                                                                                                  
 block4d_expand_activation (Act  (None, 19, 19, 448)  0          ['block4d_expand_bn[0][0]']      
 ivation)                                                                                         
                                                                                                  
 block4d_dwconv2 (DepthwiseConv  (None, 19, 19, 448)  4032       ['block4d_expand_activation[0][0]
 2D)                                                             ']                               
                                                                                                  
 block4d_bn (BatchNormalization  (None, 19, 19, 448)  1792       ['block4d_dwconv2[0][0]']        
 )                                                                                                
                                                                                                  
 block4d_activation (Activation  (None, 19, 19, 448)  0          ['block4d_bn[0][0]']             
 )                                                                                                
                                                                                                  
 block4d_se_squeeze (GlobalAver  (None, 448)         0           ['block4d_activation[0][0]']     
 agePooling2D)                                                                                    
                                                                                                  
 block4d_se_reshape (Reshape)   (None, 1, 1, 448)    0           ['block4d_se_squeeze[0][0]']     
                                                                                                  
 block4d_se_reduce (Conv2D)     (None, 1, 1, 28)     12572       ['block4d_se_reshape[0][0]']     
                                                                                                  
 block4d_se_expand (Conv2D)     (None, 1, 1, 448)    12992       ['block4d_se_reduce[0][0]']      
                                                                                                  
 block4d_se_excite (Multiply)   (None, 19, 19, 448)  0           ['block4d_activation[0][0]',     
                                                                  'block4d_se_expand[0][0]']      
                                                                                                  
 block4d_project_conv (Conv2D)  (None, 19, 19, 112)  50176       ['block4d_se_excite[0][0]']      
                                                                                                  
 block4d_project_bn (BatchNorma  (None, 19, 19, 112)  448        ['block4d_project_conv[0][0]']   
 lization)                                                                                        
                                                                                                  
 block4d_drop (Dropout)         (None, 19, 19, 112)  0           ['block4d_project_bn[0][0]']     
                                                                                                  
 block4d_add (Add)              (None, 19, 19, 112)  0           ['block4d_drop[0][0]',           
                                                                  'block4c_add[0][0]']            
                                                                                                  
 block4e_expand_conv (Conv2D)   (None, 19, 19, 448)  50176       ['block4d_add[0][0]']            
                                                                                                  
 block4e_expand_bn (BatchNormal  (None, 19, 19, 448)  1792       ['block4e_expand_conv[0][0]']    
 ization)                                                                                         
                                                                                                  
 block4e_expand_activation (Act  (None, 19, 19, 448)  0          ['block4e_expand_bn[0][0]']      
 ivation)                                                                                         
                                                                                                  
 block4e_dwconv2 (DepthwiseConv  (None, 19, 19, 448)  4032       ['block4e_expand_activation[0][0]
 2D)                                                             ']                               
                                                                                                  
 block4e_bn (BatchNormalization  (None, 19, 19, 448)  1792       ['block4e_dwconv2[0][0]']        
 )                                                                                                
                                                                                                  
 block4e_activation (Activation  (None, 19, 19, 448)  0          ['block4e_bn[0][0]']             
 )                                                                                                
                                                                                                  
 block4e_se_squeeze (GlobalAver  (None, 448)         0           ['block4e_activation[0][0]']     
 agePooling2D)                                                                                    
                                                                                                  
 block4e_se_reshape (Reshape)   (None, 1, 1, 448)    0           ['block4e_se_squeeze[0][0]']     
                                                                                                  
 block4e_se_reduce (Conv2D)     (None, 1, 1, 28)     12572       ['block4e_se_reshape[0][0]']     
                                                                                                  
 block4e_se_expand (Conv2D)     (None, 1, 1, 448)    12992       ['block4e_se_reduce[0][0]']      
                                                                                                  
 block4e_se_excite (Multiply)   (None, 19, 19, 448)  0           ['block4e_activation[0][0]',     
                                                                  'block4e_se_expand[0][0]']      
                                                                                                  
 block4e_project_conv (Conv2D)  (None, 19, 19, 112)  50176       ['block4e_se_excite[0][0]']      
                                                                                                  
 block4e_project_bn (BatchNorma  (None, 19, 19, 112)  448        ['block4e_project_conv[0][0]']   
 lization)                                                                                        
                                                                                                  
 block4e_drop (Dropout)         (None, 19, 19, 112)  0           ['block4e_project_bn[0][0]']     
                                                                                                  
 block4e_add (Add)              (None, 19, 19, 112)  0           ['block4e_drop[0][0]',           
                                                                  'block4d_add[0][0]']            
                                                                                                  
 block5a_expand_conv (Conv2D)   (None, 19, 19, 672)  75264       ['block4e_add[0][0]']            
                                                                                                  
 block5a_expand_bn (BatchNormal  (None, 19, 19, 672)  2688       ['block5a_expand_conv[0][0]']    
 ization)                                                                                         
                                                                                                  
 block5a_expand_activation (Act  (None, 19, 19, 672)  0          ['block5a_expand_bn[0][0]']      
 ivation)                                                                                         
                                                                                                  
 block5a_dwconv2 (DepthwiseConv  (None, 19, 19, 672)  6048       ['block5a_expand_activation[0][0]
 2D)                                                             ']                               
                                                                                                  
 block5a_bn (BatchNormalization  (None, 19, 19, 672)  2688       ['block5a_dwconv2[0][0]']        
 )                                                                                                
                                                                                                  
 block5a_activation (Activation  (None, 19, 19, 672)  0          ['block5a_bn[0][0]']             
 )                                                                                                
                                                                                                  
 block5a_se_squeeze (GlobalAver  (None, 672)         0           ['block5a_activation[0][0]']     
 agePooling2D)                                                                                    
                                                                                                  
 block5a_se_reshape (Reshape)   (None, 1, 1, 672)    0           ['block5a_se_squeeze[0][0]']     
                                                                                                  
 block5a_se_reduce (Conv2D)     (None, 1, 1, 28)     18844       ['block5a_se_reshape[0][0]']     
                                                                                                  
 block5a_se_expand (Conv2D)     (None, 1, 1, 672)    19488       ['block5a_se_reduce[0][0]']      
                                                                                                  
 block5a_se_excite (Multiply)   (None, 19, 19, 672)  0           ['block5a_activation[0][0]',     
                                                                  'block5a_se_expand[0][0]']      
                                                                                                  
 block5a_project_conv (Conv2D)  (None, 19, 19, 136)  91392       ['block5a_se_excite[0][0]']      
                                                                                                  
 block5a_project_bn (BatchNorma  (None, 19, 19, 136)  544        ['block5a_project_conv[0][0]']   
 lization)                                                                                        
                                                                                                  
 block5b_expand_conv (Conv2D)   (None, 19, 19, 816)  110976      ['block5a_project_bn[0][0]']     
                                                                                                  
 block5b_expand_bn (BatchNormal  (None, 19, 19, 816)  3264       ['block5b_expand_conv[0][0]']    
 ization)                                                                                         
                                                                                                  
 block5b_expand_activation (Act  (None, 19, 19, 816)  0          ['block5b_expand_bn[0][0]']      
 ivation)                                                                                         
                                                                                                  
 block5b_dwconv2 (DepthwiseConv  (None, 19, 19, 816)  7344       ['block5b_expand_activation[0][0]
 2D)                                                             ']                               
                                                                                                  
 block5b_bn (BatchNormalization  (None, 19, 19, 816)  3264       ['block5b_dwconv2[0][0]']        
 )                                                                                                
                                                                                                  
 block5b_activation (Activation  (None, 19, 19, 816)  0          ['block5b_bn[0][0]']             
 )                                                                                                
                                                                                                  
 block5b_se_squeeze (GlobalAver  (None, 816)         0           ['block5b_activation[0][0]']     
 agePooling2D)                                                                                    
                                                                                                  
 block5b_se_reshape (Reshape)   (None, 1, 1, 816)    0           ['block5b_se_squeeze[0][0]']     
                                                                                                  
 block5b_se_reduce (Conv2D)     (None, 1, 1, 34)     27778       ['block5b_se_reshape[0][0]']     
                                                                                                  
 block5b_se_expand (Conv2D)     (None, 1, 1, 816)    28560       ['block5b_se_reduce[0][0]']      
                                                                                                  
 block5b_se_excite (Multiply)   (None, 19, 19, 816)  0           ['block5b_activation[0][0]',     
                                                                  'block5b_se_expand[0][0]']      
                                                                                                  
 block5b_project_conv (Conv2D)  (None, 19, 19, 136)  110976      ['block5b_se_excite[0][0]']      
                                                                                                  
 block5b_project_bn (BatchNorma  (None, 19, 19, 136)  544        ['block5b_project_conv[0][0]']   
 lization)                                                                                        
                                                                                                  
 block5b_drop (Dropout)         (None, 19, 19, 136)  0           ['block5b_project_bn[0][0]']     
                                                                                                  
 block5b_add (Add)              (None, 19, 19, 136)  0           ['block5b_drop[0][0]',           
                                                                  'block5a_project_bn[0][0]']     
                                                                                                  
 block5c_expand_conv (Conv2D)   (None, 19, 19, 816)  110976      ['block5b_add[0][0]']            
                                                                                                  
 block5c_expand_bn (BatchNormal  (None, 19, 19, 816)  3264       ['block5c_expand_conv[0][0]']    
 ization)                                                                                         
                                                                                                  
 block5c_expand_activation (Act  (None, 19, 19, 816)  0          ['block5c_expand_bn[0][0]']      
 ivation)                                                                                         
                                                                                                  
 block5c_dwconv2 (DepthwiseConv  (None, 19, 19, 816)  7344       ['block5c_expand_activation[0][0]
 2D)                                                             ']                               
                                                                                                  
 block5c_bn (BatchNormalization  (None, 19, 19, 816)  3264       ['block5c_dwconv2[0][0]']        
 )                                                                                                
                                                                                                  
 block5c_activation (Activation  (None, 19, 19, 816)  0          ['block5c_bn[0][0]']             
 )                                                                                                
                                                                                                  
 block5c_se_squeeze (GlobalAver  (None, 816)         0           ['block5c_activation[0][0]']     
 agePooling2D)                                                                                    
                                                                                                  
 block5c_se_reshape (Reshape)   (None, 1, 1, 816)    0           ['block5c_se_squeeze[0][0]']     
                                                                                                  
 block5c_se_reduce (Conv2D)     (None, 1, 1, 34)     27778       ['block5c_se_reshape[0][0]']     
                                                                                                  
 block5c_se_expand (Conv2D)     (None, 1, 1, 816)    28560       ['block5c_se_reduce[0][0]']      
                                                                                                  
 block5c_se_excite (Multiply)   (None, 19, 19, 816)  0           ['block5c_activation[0][0]',     
                                                                  'block5c_se_expand[0][0]']      
                                                                                                  
 block5c_project_conv (Conv2D)  (None, 19, 19, 136)  110976      ['block5c_se_excite[0][0]']      
                                                                                                  
 block5c_project_bn (BatchNorma  (None, 19, 19, 136)  544        ['block5c_project_conv[0][0]']   
 lization)                                                                                        
                                                                                                  
 block5c_drop (Dropout)         (None, 19, 19, 136)  0           ['block5c_project_bn[0][0]']     
                                                                                                  
 block5c_add (Add)              (None, 19, 19, 136)  0           ['block5c_drop[0][0]',           
                                                                  'block5b_add[0][0]']            
                                                                                                  
 block5d_expand_conv (Conv2D)   (None, 19, 19, 816)  110976      ['block5c_add[0][0]']            
                                                                                                  
 block5d_expand_bn (BatchNormal  (None, 19, 19, 816)  3264       ['block5d_expand_conv[0][0]']    
 ization)                                                                                         
                                                                                                  
 block5d_expand_activation (Act  (None, 19, 19, 816)  0          ['block5d_expand_bn[0][0]']      
 ivation)                                                                                         
                                                                                                  
 block5d_dwconv2 (DepthwiseConv  (None, 19, 19, 816)  7344       ['block5d_expand_activation[0][0]
 2D)                                                             ']                               
                                                                                                  
 block5d_bn (BatchNormalization  (None, 19, 19, 816)  3264       ['block5d_dwconv2[0][0]']        
 )                                                                                                
                                                                                                  
 block5d_activation (Activation  (None, 19, 19, 816)  0          ['block5d_bn[0][0]']             
 )                                                                                                
                                                                                                  
 block5d_se_squeeze (GlobalAver  (None, 816)         0           ['block5d_activation[0][0]']     
 agePooling2D)                                                                                    
                                                                                                  
 block5d_se_reshape (Reshape)   (None, 1, 1, 816)    0           ['block5d_se_squeeze[0][0]']     
                                                                                                  
 block5d_se_reduce (Conv2D)     (None, 1, 1, 34)     27778       ['block5d_se_reshape[0][0]']     
                                                                                                  
 block5d_se_expand (Conv2D)     (None, 1, 1, 816)    28560       ['block5d_se_reduce[0][0]']      
                                                                                                  
 block5d_se_excite (Multiply)   (None, 19, 19, 816)  0           ['block5d_activation[0][0]',     
                                                                  'block5d_se_expand[0][0]']      
                                                                                                  
 block5d_project_conv (Conv2D)  (None, 19, 19, 136)  110976      ['block5d_se_excite[0][0]']      
                                                                                                  
 block5d_project_bn (BatchNorma  (None, 19, 19, 136)  544        ['block5d_project_conv[0][0]']   
 lization)                                                                                        
                                                                                                  
 block5d_drop (Dropout)         (None, 19, 19, 136)  0           ['block5d_project_bn[0][0]']     
                                                                                                  
 block5d_add (Add)              (None, 19, 19, 136)  0           ['block5d_drop[0][0]',           
                                                                  'block5c_add[0][0]']            
                                                                                                  
 block5e_expand_conv (Conv2D)   (None, 19, 19, 816)  110976      ['block5d_add[0][0]']            
                                                                                                  
 block5e_expand_bn (BatchNormal  (None, 19, 19, 816)  3264       ['block5e_expand_conv[0][0]']    
 ization)                                                                                         
                                                                                                  
 block5e_expand_activation (Act  (None, 19, 19, 816)  0          ['block5e_expand_bn[0][0]']      
 ivation)                                                                                         
                                                                                                  
 block5e_dwconv2 (DepthwiseConv  (None, 19, 19, 816)  7344       ['block5e_expand_activation[0][0]
 2D)                                                             ']                               
                                                                                                  
 block5e_bn (BatchNormalization  (None, 19, 19, 816)  3264       ['block5e_dwconv2[0][0]']        
 )                                                                                                
                                                                                                  
 block5e_activation (Activation  (None, 19, 19, 816)  0          ['block5e_bn[0][0]']             
 )                                                                                                
                                                                                                  
 block5e_se_squeeze (GlobalAver  (None, 816)         0           ['block5e_activation[0][0]']     
 agePooling2D)                                                                                    
                                                                                                  
 block5e_se_reshape (Reshape)   (None, 1, 1, 816)    0           ['block5e_se_squeeze[0][0]']     
                                                                                                  
 block5e_se_reduce (Conv2D)     (None, 1, 1, 34)     27778       ['block5e_se_reshape[0][0]']     
                                                                                                  
 block5e_se_expand (Conv2D)     (None, 1, 1, 816)    28560       ['block5e_se_reduce[0][0]']      
                                                                                                  
 block5e_se_excite (Multiply)   (None, 19, 19, 816)  0           ['block5e_activation[0][0]',     
                                                                  'block5e_se_expand[0][0]']      
                                                                                                  
 block5e_project_conv (Conv2D)  (None, 19, 19, 136)  110976      ['block5e_se_excite[0][0]']      
                                                                                                  
 block5e_project_bn (BatchNorma  (None, 19, 19, 136)  544        ['block5e_project_conv[0][0]']   
 lization)                                                                                        
                                                                                                  
 block5e_drop (Dropout)         (None, 19, 19, 136)  0           ['block5e_project_bn[0][0]']     
                                                                                                  
 block5e_add (Add)              (None, 19, 19, 136)  0           ['block5e_drop[0][0]',           
                                                                  'block5d_add[0][0]']            
                                                                                                  
 block5f_expand_conv (Conv2D)   (None, 19, 19, 816)  110976      ['block5e_add[0][0]']            
                                                                                                  
 block5f_expand_bn (BatchNormal  (None, 19, 19, 816)  3264       ['block5f_expand_conv[0][0]']    
 ization)                                                                                         
                                                                                                  
 block5f_expand_activation (Act  (None, 19, 19, 816)  0          ['block5f_expand_bn[0][0]']      
 ivation)                                                                                         
                                                                                                  
 block5f_dwconv2 (DepthwiseConv  (None, 19, 19, 816)  7344       ['block5f_expand_activation[0][0]
 2D)                                                             ']                               
                                                                                                  
 block5f_bn (BatchNormalization  (None, 19, 19, 816)  3264       ['block5f_dwconv2[0][0]']        
 )                                                                                                
                                                                                                  
 block5f_activation (Activation  (None, 19, 19, 816)  0          ['block5f_bn[0][0]']             
 )                                                                                                
                                                                                                  
 block5f_se_squeeze (GlobalAver  (None, 816)         0           ['block5f_activation[0][0]']     
 agePooling2D)                                                                                    
                                                                                                  
 block5f_se_reshape (Reshape)   (None, 1, 1, 816)    0           ['block5f_se_squeeze[0][0]']     
                                                                                                  
 block5f_se_reduce (Conv2D)     (None, 1, 1, 34)     27778       ['block5f_se_reshape[0][0]']     
                                                                                                  
 block5f_se_expand (Conv2D)     (None, 1, 1, 816)    28560       ['block5f_se_reduce[0][0]']      
                                                                                                  
 block5f_se_excite (Multiply)   (None, 19, 19, 816)  0           ['block5f_activation[0][0]',     
                                                                  'block5f_se_expand[0][0]']      
                                                                                                  
 block5f_project_conv (Conv2D)  (None, 19, 19, 136)  110976      ['block5f_se_excite[0][0]']      
                                                                                                  
 block5f_project_bn (BatchNorma  (None, 19, 19, 136)  544        ['block5f_project_conv[0][0]']   
 lization)                                                                                        
                                                                                                  
 block5f_drop (Dropout)         (None, 19, 19, 136)  0           ['block5f_project_bn[0][0]']     
                                                                                                  
 block5f_add (Add)              (None, 19, 19, 136)  0           ['block5f_drop[0][0]',           
                                                                  'block5e_add[0][0]']            
                                                                                                  
 block5g_expand_conv (Conv2D)   (None, 19, 19, 816)  110976      ['block5f_add[0][0]']            
                                                                                                  
 block5g_expand_bn (BatchNormal  (None, 19, 19, 816)  3264       ['block5g_expand_conv[0][0]']    
 ization)                                                                                         
                                                                                                  
 block5g_expand_activation (Act  (None, 19, 19, 816)  0          ['block5g_expand_bn[0][0]']      
 ivation)                                                                                         
                                                                                                  
 block5g_dwconv2 (DepthwiseConv  (None, 19, 19, 816)  7344       ['block5g_expand_activation[0][0]
 2D)                                                             ']                               
                                                                                                  
 block5g_bn (BatchNormalization  (None, 19, 19, 816)  3264       ['block5g_dwconv2[0][0]']        
 )                                                                                                
                                                                                                  
 block5g_activation (Activation  (None, 19, 19, 816)  0          ['block5g_bn[0][0]']             
 )                                                                                                
                                                                                                  
 block5g_se_squeeze (GlobalAver  (None, 816)         0           ['block5g_activation[0][0]']     
 agePooling2D)                                                                                    
                                                                                                  
 block5g_se_reshape (Reshape)   (None, 1, 1, 816)    0           ['block5g_se_squeeze[0][0]']     
                                                                                                  
 block5g_se_reduce (Conv2D)     (None, 1, 1, 34)     27778       ['block5g_se_reshape[0][0]']     
                                                                                                  
 block5g_se_expand (Conv2D)     (None, 1, 1, 816)    28560       ['block5g_se_reduce[0][0]']      
                                                                                                  
 block5g_se_excite (Multiply)   (None, 19, 19, 816)  0           ['block5g_activation[0][0]',     
                                                                  'block5g_se_expand[0][0]']      
                                                                                                  
 block5g_project_conv (Conv2D)  (None, 19, 19, 136)  110976      ['block5g_se_excite[0][0]']      
                                                                                                  
 block5g_project_bn (BatchNorma  (None, 19, 19, 136)  544        ['block5g_project_conv[0][0]']   
 lization)                                                                                        
                                                                                                  
 block5g_drop (Dropout)         (None, 19, 19, 136)  0           ['block5g_project_bn[0][0]']     
                                                                                                  
 block5g_add (Add)              (None, 19, 19, 136)  0           ['block5g_drop[0][0]',           
                                                                  'block5f_add[0][0]']            
                                                                                                  
 block6a_expand_conv (Conv2D)   (None, 19, 19, 816)  110976      ['block5g_add[0][0]']            
                                                                                                  
 block6a_expand_bn (BatchNormal  (None, 19, 19, 816)  3264       ['block6a_expand_conv[0][0]']    
 ization)                                                                                         
                                                                                                  
 block6a_expand_activation (Act  (None, 19, 19, 816)  0          ['block6a_expand_bn[0][0]']      
 ivation)                                                                                         
                                                                                                  
 block6a_dwconv2 (DepthwiseConv  (None, 10, 10, 816)  7344       ['block6a_expand_activation[0][0]
 2D)                                                             ']                               
                                                                                                  
 block6a_bn (BatchNormalization  (None, 10, 10, 816)  3264       ['block6a_dwconv2[0][0]']        
 )                                                                                                
                                                                                                  
 block6a_activation (Activation  (None, 10, 10, 816)  0          ['block6a_bn[0][0]']             
 )                                                                                                
                                                                                                  
 block6a_se_squeeze (GlobalAver  (None, 816)         0           ['block6a_activation[0][0]']     
 agePooling2D)                                                                                    
                                                                                                  
 block6a_se_reshape (Reshape)   (None, 1, 1, 816)    0           ['block6a_se_squeeze[0][0]']     
                                                                                                  
 block6a_se_reduce (Conv2D)     (None, 1, 1, 34)     27778       ['block6a_se_reshape[0][0]']     
                                                                                                  
 block6a_se_expand (Conv2D)     (None, 1, 1, 816)    28560       ['block6a_se_reduce[0][0]']      
                                                                                                  
 block6a_se_excite (Multiply)   (None, 10, 10, 816)  0           ['block6a_activation[0][0]',     
                                                                  'block6a_se_expand[0][0]']      
                                                                                                  
 block6a_project_conv (Conv2D)  (None, 10, 10, 232)  189312      ['block6a_se_excite[0][0]']      
                                                                                                  
 block6a_project_bn (BatchNorma  (None, 10, 10, 232)  928        ['block6a_project_conv[0][0]']   
 lization)                                                                                        
                                                                                                  
 block6b_expand_conv (Conv2D)   (None, 10, 10, 1392  322944      ['block6a_project_bn[0][0]']     
                                )                                                                 
…
 block6b_bn (BatchNormalization  (None, 10, 10, 1392  5568       ['block6b_dwconv2[0][0]']        
 )                              )                                                                 
                                                                                                  
 block6b_activation (Activation  (None, 10, 10, 1392  0          ['block6b_bn[0][0]']             
 )                              )                                                                 
                                                                                                  
 block6b_se_squeeze (GlobalAver  (None, 1392)        0           ['block6b_activation[0][0]']     
 agePooling2D)                                                                                    
                                                                                                  
 block6b_se_reshape (Reshape)   (None, 1, 1, 1392)   0           ['block6b_se_squeeze[0][0]']     
                                                                                                  
 block6b_se_reduce (Conv2D)     (None, 1, 1, 58)     80794       ['block6b_se_reshape[0][0]']     
                                                                                                  
 block6b_se_expand (Conv2D)     (None, 1, 1, 1392)   82128       ['block6b_se_reduce[0][0]']      
                                                                                                  
 block6b_se_excite (Multiply)   (None, 10, 10, 1392  0           ['block6b_activation[0][0]',     
                                )                                 'block6b_se_expand[0][0]']      
                                                                                                  
 block6b_project_conv (Conv2D)  (None, 10, 10, 232)  322944      ['block6b_se_excite[0][0]']      
                                                                                                  
 block6b_project_bn (BatchNorma  (None, 10, 10, 232)  928        ['block6b_project_conv[0][0]']   
 lization)                                                                                        
                                                                                                  
 block6b_drop (Dropout)         (None, 10, 10, 232)  0           ['block6b_project_bn[0][0]']     
                                                                                                  
 block6b_add (Add)              (None, 10, 10, 232)  0           ['block6b_drop[0][0]',           
                                                                  'block6a_project_bn[0][0]']     
                                                                                                  
 block6c_expand_conv (Conv2D)   (None, 10, 10, 1392  322944      ['block6b_add[0][0]']            
                                )                                                                 
…
 top_bn (BatchNormalization)    (None, 10, 10, 1536  6144        ['top_conv[0][0]']               
                                )                                                                 
                                                                                                  
 top_activation (Activation)    (None, 10, 10, 1536  0           ['top_bn[0][0]']                 
                                )                                                                 
                                                                                                  
 global_average_pooling2d (Glob  (None, 1536)        0           ['top_activation[0][0]']         
 alAveragePooling2D)                                                                              
                                                                                                  
 dropout (Dropout)              (None, 1536)         0           ['global_average_pooling2d[0][0]'
                                                                 ]                                
                                                                                                  
 dense (Dense)                  (None, 2048)         3147776     ['dropout[0][0]']                
                                                                                                  
 dropout_1 (Dropout)            (None, 2048)         0           ['dense[0][0]']                  
                                                                                                  
 dense_1 (Dense)                (None, 2)            4098        ['dropout_1[0][0]']              
                                                                                                  
==================================================================================================
Total params: 16,082,496
Trainable params: 15,973,280
Non-trainable params: 109,216
__________________________________________________________________________________________________
